7767517
1370 2153
Input            input.1                  0 1 data 
Convolution      Conv_0                   1 1 data 703 0=64 1=3 11=3 2=1 12=1 3=1 13=1 4=1 14=1 15=1 16=1 5=1 6=1728 
Split            splitncnn_0              1 8 703 703_splitncnn_0 703_splitncnn_1 703_splitncnn_2 703_splitncnn_3 703_splitncnn_4 703_splitncnn_5 703_splitncnn_6 703_splitncnn_7 
Convolution      Conv_1                   1 1 703_splitncnn_7 704 0=32 1=3 11=3 2=1 12=1 3=1 13=1 4=1 14=1 15=1 16=1 5=1 6=18432 
ReLU             LeakyRelu_2              1 1 704 705 0=2.000000e-01 
Split            splitncnn_1              1 4 705 705_splitncnn_0 705_splitncnn_1 705_splitncnn_2 705_splitncnn_3 
Concat           Concat_3                 2 1 703_splitncnn_6 705_splitncnn_3 706 0=0 
Convolution      Conv_4                   1 1 706 707 0=32 1=3 11=3 2=1 12=1 3=1 13=1 4=1 14=1 15=1 16=1 5=1 6=27648 
ReLU             LeakyRelu_5              1 1 707 708 0=2.000000e-01 
Split            splitncnn_2              1 3 708 708_splitncnn_0 708_splitncnn_1 708_splitncnn_2 
Concat           Concat_6                 3 1 703_splitncnn_5 705_splitncnn_2 708_splitncnn_2 709 0=0 
Convolution      Conv_7                   1 1 709 710 0=32 1=3 11=3 2=1 12=1 3=1 13=1 4=1 14=1 15=1 16=1 5=1 6=36864 
ReLU             LeakyRelu_8              1 1 710 711 0=2.000000e-01 
Split            splitncnn_3              1 2 711 711_splitncnn_0 711_splitncnn_1 
Concat           Concat_9                 4 1 703_splitncnn_4 705_splitncnn_1 708_splitncnn_1 711_splitncnn_1 712 0=0 
Convolution      Conv_10                  1 1 712 713 0=32 1=3 11=3 2=1 12=1 3=1 13=1 4=1 14=1 15=1 16=1 5=1 6=46080 
ReLU             LeakyRelu_11             1 1 713 714 0=2.000000e-01 
Concat           Concat_12                5 1 703_splitncnn_3 705_splitncnn_0 708_splitncnn_0 711_splitncnn_0 714 715 0=0 
Convolution      Conv_13                  1 1 715 716 0=64 1=3 11=3 2=1 12=1 3=1 13=1 4=1 14=1 15=1 16=1 5=1 6=110592 
BinaryOp         Mul_15                   1 1 716 718 0=2 1=1 2=2.000000e-01 
BinaryOp         Add_16                   2 1 718 703_splitncnn_2 719 0=0 
Split            splitncnn_4              1 6 719 719_splitncnn_0 719_splitncnn_1 719_splitncnn_2 719_splitncnn_3 719_splitncnn_4 719_splitncnn_5 
Convolution      Conv_17                  1 1 719_splitncnn_5 720 0=32 1=3 11=3 2=1 12=1 3=1 13=1 4=1 14=1 15=1 16=1 5=1 6=18432 
ReLU             LeakyRelu_18             1 1 720 721 0=2.000000e-01 
Split            splitncnn_5              1 4 721 721_splitncnn_0 721_splitncnn_1 721_splitncnn_2 721_splitncnn_3 
Concat           Concat_19                2 1 719_splitncnn_4 721_splitncnn_3 722 0=0 
Convolution      Conv_20                  1 1 722 723 0=32 1=3 11=3 2=1 12=1 3=1 13=1 4=1 14=1 15=1 16=1 5=1 6=27648 
ReLU             LeakyRelu_21             1 1 723 724 0=2.000000e-01 
Split            splitncnn_6              1 3 724 724_splitncnn_0 724_splitncnn_1 724_splitncnn_2 
Concat           Concat_22                3 1 719_splitncnn_3 721_splitncnn_2 724_splitncnn_2 725 0=0 
Convolution      Conv_23                  1 1 725 726 0=32 1=3 11=3 2=1 12=1 3=1 13=1 4=1 14=1 15=1 16=1 5=1 6=36864 
ReLU             LeakyRelu_24             1 1 726 727 0=2.000000e-01 
Split            splitncnn_7              1 2 727 727_splitncnn_0 727_splitncnn_1 
Concat           Concat_25                4 1 719_splitncnn_2 721_splitncnn_1 724_splitncnn_1 727_splitncnn_1 728 0=0 
Convolution      Conv_26                  1 1 728 729 0=32 1=3 11=3 2=1 12=1 3=1 13=1 4=1 14=1 15=1 16=1 5=1 6=46080 
ReLU             LeakyRelu_27             1 1 729 730 0=2.000000e-01 
Concat           Concat_28                5 1 719_splitncnn_1 721_splitncnn_0 724_splitncnn_0 727_splitncnn_0 730 731 0=0 
Convolution      Conv_29                  1 1 731 732 0=64 1=3 11=3 2=1 12=1 3=1 13=1 4=1 14=1 15=1 16=1 5=1 6=110592 
BinaryOp         Mul_31                   1 1 732 734 0=2 1=1 2=2.000000e-01 
BinaryOp         Add_32                   2 1 734 719_splitncnn_0 735 0=0 
Split            splitncnn_8              1 6 735 735_splitncnn_0 735_splitncnn_1 735_splitncnn_2 735_splitncnn_3 735_splitncnn_4 735_splitncnn_5 
Convolution      Conv_33                  1 1 735_splitncnn_5 736 0=32 1=3 11=3 2=1 12=1 3=1 13=1 4=1 14=1 15=1 16=1 5=1 6=18432 
ReLU             LeakyRelu_34             1 1 736 737 0=2.000000e-01 
Split            splitncnn_9              1 4 737 737_splitncnn_0 737_splitncnn_1 737_splitncnn_2 737_splitncnn_3 
Concat           Concat_35                2 1 735_splitncnn_4 737_splitncnn_3 738 0=0 
Convolution      Conv_36                  1 1 738 739 0=32 1=3 11=3 2=1 12=1 3=1 13=1 4=1 14=1 15=1 16=1 5=1 6=27648 
ReLU             LeakyRelu_37             1 1 739 740 0=2.000000e-01 
Split            splitncnn_10             1 3 740 740_splitncnn_0 740_splitncnn_1 740_splitncnn_2 
Concat           Concat_38                3 1 735_splitncnn_3 737_splitncnn_2 740_splitncnn_2 741 0=0 
Convolution      Conv_39                  1 1 741 742 0=32 1=3 11=3 2=1 12=1 3=1 13=1 4=1 14=1 15=1 16=1 5=1 6=36864 
ReLU             LeakyRelu_40             1 1 742 743 0=2.000000e-01 
Split            splitncnn_11             1 2 743 743_splitncnn_0 743_splitncnn_1 
Concat           Concat_41                4 1 735_splitncnn_2 737_splitncnn_1 740_splitncnn_1 743_splitncnn_1 744 0=0 
Convolution      Conv_42                  1 1 744 745 0=32 1=3 11=3 2=1 12=1 3=1 13=1 4=1 14=1 15=1 16=1 5=1 6=46080 
ReLU             LeakyRelu_43             1 1 745 746 0=2.000000e-01 
Concat           Concat_44                5 1 735_splitncnn_1 737_splitncnn_0 740_splitncnn_0 743_splitncnn_0 746 747 0=0 
Convolution      Conv_45                  1 1 747 748 0=64 1=3 11=3 2=1 12=1 3=1 13=1 4=1 14=1 15=1 16=1 5=1 6=110592 
BinaryOp         Mul_47                   1 1 748 750 0=2 1=1 2=2.000000e-01 
BinaryOp         Add_48                   2 1 750 735_splitncnn_0 751 0=0 
BinaryOp         Mul_50                   1 1 751 753 0=2 1=1 2=2.000000e-01 
BinaryOp         Add_51                   2 1 753 703_splitncnn_1 754 0=0 
Split            splitncnn_12             1 7 754 754_splitncnn_0 754_splitncnn_1 754_splitncnn_2 754_splitncnn_3 754_splitncnn_4 754_splitncnn_5 754_splitncnn_6 
Convolution      Conv_52                  1 1 754_splitncnn_6 755 0=32 1=3 11=3 2=1 12=1 3=1 13=1 4=1 14=1 15=1 16=1 5=1 6=18432 
ReLU             LeakyRelu_53             1 1 755 756 0=2.000000e-01 
Split            splitncnn_13             1 4 756 756_splitncnn_0 756_splitncnn_1 756_splitncnn_2 756_splitncnn_3 
Concat           Concat_54                2 1 754_splitncnn_5 756_splitncnn_3 757 0=0 
Convolution      Conv_55                  1 1 757 758 0=32 1=3 11=3 2=1 12=1 3=1 13=1 4=1 14=1 15=1 16=1 5=1 6=27648 
ReLU             LeakyRelu_56             1 1 758 759 0=2.000000e-01 
Split            splitncnn_14             1 3 759 759_splitncnn_0 759_splitncnn_1 759_splitncnn_2 
Concat           Concat_57                3 1 754_splitncnn_4 756_splitncnn_2 759_splitncnn_2 760 0=0 
Convolution      Conv_58                  1 1 760 761 0=32 1=3 11=3 2=1 12=1 3=1 13=1 4=1 14=1 15=1 16=1 5=1 6=36864 
ReLU             LeakyRelu_59             1 1 761 762 0=2.000000e-01 
Split            splitncnn_15             1 2 762 762_splitncnn_0 762_splitncnn_1 
Concat           Concat_60                4 1 754_splitncnn_3 756_splitncnn_1 759_splitncnn_1 762_splitncnn_1 763 0=0 
Convolution      Conv_61                  1 1 763 764 0=32 1=3 11=3 2=1 12=1 3=1 13=1 4=1 14=1 15=1 16=1 5=1 6=46080 
ReLU             LeakyRelu_62             1 1 764 765 0=2.000000e-01 
Concat           Concat_63                5 1 754_splitncnn_2 756_splitncnn_0 759_splitncnn_0 762_splitncnn_0 765 766 0=0 
Convolution      Conv_64                  1 1 766 767 0=64 1=3 11=3 2=1 12=1 3=1 13=1 4=1 14=1 15=1 16=1 5=1 6=110592 
BinaryOp         Mul_66                   1 1 767 769 0=2 1=1 2=2.000000e-01 
BinaryOp         Add_67                   2 1 769 754_splitncnn_1 770 0=0 
Split            splitncnn_16             1 6 770 770_splitncnn_0 770_splitncnn_1 770_splitncnn_2 770_splitncnn_3 770_splitncnn_4 770_splitncnn_5 
Convolution      Conv_68                  1 1 770_splitncnn_5 771 0=32 1=3 11=3 2=1 12=1 3=1 13=1 4=1 14=1 15=1 16=1 5=1 6=18432 
ReLU             LeakyRelu_69             1 1 771 772 0=2.000000e-01 
Split            splitncnn_17             1 4 772 772_splitncnn_0 772_splitncnn_1 772_splitncnn_2 772_splitncnn_3 
Concat           Concat_70                2 1 770_splitncnn_4 772_splitncnn_3 773 0=0 
Convolution      Conv_71                  1 1 773 774 0=32 1=3 11=3 2=1 12=1 3=1 13=1 4=1 14=1 15=1 16=1 5=1 6=27648 
ReLU             LeakyRelu_72             1 1 774 775 0=2.000000e-01 
Split            splitncnn_18             1 3 775 775_splitncnn_0 775_splitncnn_1 775_splitncnn_2 
Concat           Concat_73                3 1 770_splitncnn_3 772_splitncnn_2 775_splitncnn_2 776 0=0 
Convolution      Conv_74                  1 1 776 777 0=32 1=3 11=3 2=1 12=1 3=1 13=1 4=1 14=1 15=1 16=1 5=1 6=36864 
ReLU             LeakyRelu_75             1 1 777 778 0=2.000000e-01 
Split            splitncnn_19             1 2 778 778_splitncnn_0 778_splitncnn_1 
Concat           Concat_76                4 1 770_splitncnn_2 772_splitncnn_1 775_splitncnn_1 778_splitncnn_1 779 0=0 
Convolution      Conv_77                  1 1 779 780 0=32 1=3 11=3 2=1 12=1 3=1 13=1 4=1 14=1 15=1 16=1 5=1 6=46080 
ReLU             LeakyRelu_78             1 1 780 781 0=2.000000e-01 
Concat           Concat_79                5 1 770_splitncnn_1 772_splitncnn_0 775_splitncnn_0 778_splitncnn_0 781 782 0=0 
Convolution      Conv_80                  1 1 782 783 0=64 1=3 11=3 2=1 12=1 3=1 13=1 4=1 14=1 15=1 16=1 5=1 6=110592 
BinaryOp         Mul_82                   1 1 783 785 0=2 1=1 2=2.000000e-01 
BinaryOp         Add_83                   2 1 785 770_splitncnn_0 786 0=0 
Split            splitncnn_20             1 6 786 786_splitncnn_0 786_splitncnn_1 786_splitncnn_2 786_splitncnn_3 786_splitncnn_4 786_splitncnn_5 
Convolution      Conv_84                  1 1 786_splitncnn_5 787 0=32 1=3 11=3 2=1 12=1 3=1 13=1 4=1 14=1 15=1 16=1 5=1 6=18432 
ReLU             LeakyRelu_85             1 1 787 788 0=2.000000e-01 
Split            splitncnn_21             1 4 788 788_splitncnn_0 788_splitncnn_1 788_splitncnn_2 788_splitncnn_3 
Concat           Concat_86                2 1 786_splitncnn_4 788_splitncnn_3 789 0=0 
Convolution      Conv_87                  1 1 789 790 0=32 1=3 11=3 2=1 12=1 3=1 13=1 4=1 14=1 15=1 16=1 5=1 6=27648 
ReLU             LeakyRelu_88             1 1 790 791 0=2.000000e-01 
Split            splitncnn_22             1 3 791 791_splitncnn_0 791_splitncnn_1 791_splitncnn_2 
Concat           Concat_89                3 1 786_splitncnn_3 788_splitncnn_2 791_splitncnn_2 792 0=0 
Convolution      Conv_90                  1 1 792 793 0=32 1=3 11=3 2=1 12=1 3=1 13=1 4=1 14=1 15=1 16=1 5=1 6=36864 
ReLU             LeakyRelu_91             1 1 793 794 0=2.000000e-01 
Split            splitncnn_23             1 2 794 794_splitncnn_0 794_splitncnn_1 
Concat           Concat_92                4 1 786_splitncnn_2 788_splitncnn_1 791_splitncnn_1 794_splitncnn_1 795 0=0 
Convolution      Conv_93                  1 1 795 796 0=32 1=3 11=3 2=1 12=1 3=1 13=1 4=1 14=1 15=1 16=1 5=1 6=46080 
ReLU             LeakyRelu_94             1 1 796 797 0=2.000000e-01 
Concat           Concat_95                5 1 786_splitncnn_1 788_splitncnn_0 791_splitncnn_0 794_splitncnn_0 797 798 0=0 
Convolution      Conv_96                  1 1 798 799 0=64 1=3 11=3 2=1 12=1 3=1 13=1 4=1 14=1 15=1 16=1 5=1 6=110592 
BinaryOp         Mul_98                   1 1 799 801 0=2 1=1 2=2.000000e-01 
BinaryOp         Add_99                   2 1 801 786_splitncnn_0 802 0=0 
BinaryOp         Mul_101                  1 1 802 804 0=2 1=1 2=2.000000e-01 
BinaryOp         Add_102                  2 1 804 754_splitncnn_0 805 0=0 
Split            splitncnn_24             1 7 805 805_splitncnn_0 805_splitncnn_1 805_splitncnn_2 805_splitncnn_3 805_splitncnn_4 805_splitncnn_5 805_splitncnn_6 
Convolution      Conv_103                 1 1 805_splitncnn_6 806 0=32 1=3 11=3 2=1 12=1 3=1 13=1 4=1 14=1 15=1 16=1 5=1 6=18432 
ReLU             LeakyRelu_104            1 1 806 807 0=2.000000e-01 
Split            splitncnn_25             1 4 807 807_splitncnn_0 807_splitncnn_1 807_splitncnn_2 807_splitncnn_3 
Concat           Concat_105               2 1 805_splitncnn_5 807_splitncnn_3 808 0=0 
Convolution      Conv_106                 1 1 808 809 0=32 1=3 11=3 2=1 12=1 3=1 13=1 4=1 14=1 15=1 16=1 5=1 6=27648 
ReLU             LeakyRelu_107            1 1 809 810 0=2.000000e-01 
Split            splitncnn_26             1 3 810 810_splitncnn_0 810_splitncnn_1 810_splitncnn_2 
Concat           Concat_108               3 1 805_splitncnn_4 807_splitncnn_2 810_splitncnn_2 811 0=0 
Convolution      Conv_109                 1 1 811 812 0=32 1=3 11=3 2=1 12=1 3=1 13=1 4=1 14=1 15=1 16=1 5=1 6=36864 
ReLU             LeakyRelu_110            1 1 812 813 0=2.000000e-01 
Split            splitncnn_27             1 2 813 813_splitncnn_0 813_splitncnn_1 
Concat           Concat_111               4 1 805_splitncnn_3 807_splitncnn_1 810_splitncnn_1 813_splitncnn_1 814 0=0 
Convolution      Conv_112                 1 1 814 815 0=32 1=3 11=3 2=1 12=1 3=1 13=1 4=1 14=1 15=1 16=1 5=1 6=46080 
ReLU             LeakyRelu_113            1 1 815 816 0=2.000000e-01 
Concat           Concat_114               5 1 805_splitncnn_2 807_splitncnn_0 810_splitncnn_0 813_splitncnn_0 816 817 0=0 
Convolution      Conv_115                 1 1 817 818 0=64 1=3 11=3 2=1 12=1 3=1 13=1 4=1 14=1 15=1 16=1 5=1 6=110592 
BinaryOp         Mul_117                  1 1 818 820 0=2 1=1 2=2.000000e-01 
BinaryOp         Add_118                  2 1 820 805_splitncnn_1 821 0=0 
Split            splitncnn_28             1 6 821 821_splitncnn_0 821_splitncnn_1 821_splitncnn_2 821_splitncnn_3 821_splitncnn_4 821_splitncnn_5 
Convolution      Conv_119                 1 1 821_splitncnn_5 822 0=32 1=3 11=3 2=1 12=1 3=1 13=1 4=1 14=1 15=1 16=1 5=1 6=18432 
ReLU             LeakyRelu_120            1 1 822 823 0=2.000000e-01 
Split            splitncnn_29             1 4 823 823_splitncnn_0 823_splitncnn_1 823_splitncnn_2 823_splitncnn_3 
Concat           Concat_121               2 1 821_splitncnn_4 823_splitncnn_3 824 0=0 
Convolution      Conv_122                 1 1 824 825 0=32 1=3 11=3 2=1 12=1 3=1 13=1 4=1 14=1 15=1 16=1 5=1 6=27648 
ReLU             LeakyRelu_123            1 1 825 826 0=2.000000e-01 
Split            splitncnn_30             1 3 826 826_splitncnn_0 826_splitncnn_1 826_splitncnn_2 
Concat           Concat_124               3 1 821_splitncnn_3 823_splitncnn_2 826_splitncnn_2 827 0=0 
Convolution      Conv_125                 1 1 827 828 0=32 1=3 11=3 2=1 12=1 3=1 13=1 4=1 14=1 15=1 16=1 5=1 6=36864 
ReLU             LeakyRelu_126            1 1 828 829 0=2.000000e-01 
Split            splitncnn_31             1 2 829 829_splitncnn_0 829_splitncnn_1 
Concat           Concat_127               4 1 821_splitncnn_2 823_splitncnn_1 826_splitncnn_1 829_splitncnn_1 830 0=0 
Convolution      Conv_128                 1 1 830 831 0=32 1=3 11=3 2=1 12=1 3=1 13=1 4=1 14=1 15=1 16=1 5=1 6=46080 
ReLU             LeakyRelu_129            1 1 831 832 0=2.000000e-01 
Concat           Concat_130               5 1 821_splitncnn_1 823_splitncnn_0 826_splitncnn_0 829_splitncnn_0 832 833 0=0 
Convolution      Conv_131                 1 1 833 834 0=64 1=3 11=3 2=1 12=1 3=1 13=1 4=1 14=1 15=1 16=1 5=1 6=110592 
BinaryOp         Mul_133                  1 1 834 836 0=2 1=1 2=2.000000e-01 
BinaryOp         Add_134                  2 1 836 821_splitncnn_0 837 0=0 
Split            splitncnn_32             1 6 837 837_splitncnn_0 837_splitncnn_1 837_splitncnn_2 837_splitncnn_3 837_splitncnn_4 837_splitncnn_5 
Convolution      Conv_135                 1 1 837_splitncnn_5 838 0=32 1=3 11=3 2=1 12=1 3=1 13=1 4=1 14=1 15=1 16=1 5=1 6=18432 
ReLU             LeakyRelu_136            1 1 838 839 0=2.000000e-01 
Split            splitncnn_33             1 4 839 839_splitncnn_0 839_splitncnn_1 839_splitncnn_2 839_splitncnn_3 
Concat           Concat_137               2 1 837_splitncnn_4 839_splitncnn_3 840 0=0 
Convolution      Conv_138                 1 1 840 841 0=32 1=3 11=3 2=1 12=1 3=1 13=1 4=1 14=1 15=1 16=1 5=1 6=27648 
ReLU             LeakyRelu_139            1 1 841 842 0=2.000000e-01 
Split            splitncnn_34             1 3 842 842_splitncnn_0 842_splitncnn_1 842_splitncnn_2 
Concat           Concat_140               3 1 837_splitncnn_3 839_splitncnn_2 842_splitncnn_2 843 0=0 
Convolution      Conv_141                 1 1 843 844 0=32 1=3 11=3 2=1 12=1 3=1 13=1 4=1 14=1 15=1 16=1 5=1 6=36864 
ReLU             LeakyRelu_142            1 1 844 845 0=2.000000e-01 
Split            splitncnn_35             1 2 845 845_splitncnn_0 845_splitncnn_1 
Concat           Concat_143               4 1 837_splitncnn_2 839_splitncnn_1 842_splitncnn_1 845_splitncnn_1 846 0=0 
Convolution      Conv_144                 1 1 846 847 0=32 1=3 11=3 2=1 12=1 3=1 13=1 4=1 14=1 15=1 16=1 5=1 6=46080 
ReLU             LeakyRelu_145            1 1 847 848 0=2.000000e-01 
Concat           Concat_146               5 1 837_splitncnn_1 839_splitncnn_0 842_splitncnn_0 845_splitncnn_0 848 849 0=0 
Convolution      Conv_147                 1 1 849 850 0=64 1=3 11=3 2=1 12=1 3=1 13=1 4=1 14=1 15=1 16=1 5=1 6=110592 
BinaryOp         Mul_149                  1 1 850 852 0=2 1=1 2=2.000000e-01 
BinaryOp         Add_150                  2 1 852 837_splitncnn_0 853 0=0 
BinaryOp         Mul_152                  1 1 853 855 0=2 1=1 2=2.000000e-01 
BinaryOp         Add_153                  2 1 855 805_splitncnn_0 856 0=0 
Split            splitncnn_36             1 7 856 856_splitncnn_0 856_splitncnn_1 856_splitncnn_2 856_splitncnn_3 856_splitncnn_4 856_splitncnn_5 856_splitncnn_6 
Convolution      Conv_154                 1 1 856_splitncnn_6 857 0=32 1=3 11=3 2=1 12=1 3=1 13=1 4=1 14=1 15=1 16=1 5=1 6=18432 
ReLU             LeakyRelu_155            1 1 857 858 0=2.000000e-01 
Split            splitncnn_37             1 4 858 858_splitncnn_0 858_splitncnn_1 858_splitncnn_2 858_splitncnn_3 
Concat           Concat_156               2 1 856_splitncnn_5 858_splitncnn_3 859 0=0 
Convolution      Conv_157                 1 1 859 860 0=32 1=3 11=3 2=1 12=1 3=1 13=1 4=1 14=1 15=1 16=1 5=1 6=27648 
ReLU             LeakyRelu_158            1 1 860 861 0=2.000000e-01 
Split            splitncnn_38             1 3 861 861_splitncnn_0 861_splitncnn_1 861_splitncnn_2 
Concat           Concat_159               3 1 856_splitncnn_4 858_splitncnn_2 861_splitncnn_2 862 0=0 
Convolution      Conv_160                 1 1 862 863 0=32 1=3 11=3 2=1 12=1 3=1 13=1 4=1 14=1 15=1 16=1 5=1 6=36864 
ReLU             LeakyRelu_161            1 1 863 864 0=2.000000e-01 
Split            splitncnn_39             1 2 864 864_splitncnn_0 864_splitncnn_1 
Concat           Concat_162               4 1 856_splitncnn_3 858_splitncnn_1 861_splitncnn_1 864_splitncnn_1 865 0=0 
Convolution      Conv_163                 1 1 865 866 0=32 1=3 11=3 2=1 12=1 3=1 13=1 4=1 14=1 15=1 16=1 5=1 6=46080 
ReLU             LeakyRelu_164            1 1 866 867 0=2.000000e-01 
Concat           Concat_165               5 1 856_splitncnn_2 858_splitncnn_0 861_splitncnn_0 864_splitncnn_0 867 868 0=0 
Convolution      Conv_166                 1 1 868 869 0=64 1=3 11=3 2=1 12=1 3=1 13=1 4=1 14=1 15=1 16=1 5=1 6=110592 
BinaryOp         Mul_168                  1 1 869 871 0=2 1=1 2=2.000000e-01 
BinaryOp         Add_169                  2 1 871 856_splitncnn_1 872 0=0 
Split            splitncnn_40             1 6 872 872_splitncnn_0 872_splitncnn_1 872_splitncnn_2 872_splitncnn_3 872_splitncnn_4 872_splitncnn_5 
Convolution      Conv_170                 1 1 872_splitncnn_5 873 0=32 1=3 11=3 2=1 12=1 3=1 13=1 4=1 14=1 15=1 16=1 5=1 6=18432 
ReLU             LeakyRelu_171            1 1 873 874 0=2.000000e-01 
Split            splitncnn_41             1 4 874 874_splitncnn_0 874_splitncnn_1 874_splitncnn_2 874_splitncnn_3 
Concat           Concat_172               2 1 872_splitncnn_4 874_splitncnn_3 875 0=0 
Convolution      Conv_173                 1 1 875 876 0=32 1=3 11=3 2=1 12=1 3=1 13=1 4=1 14=1 15=1 16=1 5=1 6=27648 
ReLU             LeakyRelu_174            1 1 876 877 0=2.000000e-01 
Split            splitncnn_42             1 3 877 877_splitncnn_0 877_splitncnn_1 877_splitncnn_2 
Concat           Concat_175               3 1 872_splitncnn_3 874_splitncnn_2 877_splitncnn_2 878 0=0 
Convolution      Conv_176                 1 1 878 879 0=32 1=3 11=3 2=1 12=1 3=1 13=1 4=1 14=1 15=1 16=1 5=1 6=36864 
ReLU             LeakyRelu_177            1 1 879 880 0=2.000000e-01 
Split            splitncnn_43             1 2 880 880_splitncnn_0 880_splitncnn_1 
Concat           Concat_178               4 1 872_splitncnn_2 874_splitncnn_1 877_splitncnn_1 880_splitncnn_1 881 0=0 
Convolution      Conv_179                 1 1 881 882 0=32 1=3 11=3 2=1 12=1 3=1 13=1 4=1 14=1 15=1 16=1 5=1 6=46080 
ReLU             LeakyRelu_180            1 1 882 883 0=2.000000e-01 
Concat           Concat_181               5 1 872_splitncnn_1 874_splitncnn_0 877_splitncnn_0 880_splitncnn_0 883 884 0=0 
Convolution      Conv_182                 1 1 884 885 0=64 1=3 11=3 2=1 12=1 3=1 13=1 4=1 14=1 15=1 16=1 5=1 6=110592 
BinaryOp         Mul_184                  1 1 885 887 0=2 1=1 2=2.000000e-01 
BinaryOp         Add_185                  2 1 887 872_splitncnn_0 888 0=0 
Split            splitncnn_44             1 6 888 888_splitncnn_0 888_splitncnn_1 888_splitncnn_2 888_splitncnn_3 888_splitncnn_4 888_splitncnn_5 
Convolution      Conv_186                 1 1 888_splitncnn_5 889 0=32 1=3 11=3 2=1 12=1 3=1 13=1 4=1 14=1 15=1 16=1 5=1 6=18432 
ReLU             LeakyRelu_187            1 1 889 890 0=2.000000e-01 
Split            splitncnn_45             1 4 890 890_splitncnn_0 890_splitncnn_1 890_splitncnn_2 890_splitncnn_3 
Concat           Concat_188               2 1 888_splitncnn_4 890_splitncnn_3 891 0=0 
Convolution      Conv_189                 1 1 891 892 0=32 1=3 11=3 2=1 12=1 3=1 13=1 4=1 14=1 15=1 16=1 5=1 6=27648 
ReLU             LeakyRelu_190            1 1 892 893 0=2.000000e-01 
Split            splitncnn_46             1 3 893 893_splitncnn_0 893_splitncnn_1 893_splitncnn_2 
Concat           Concat_191               3 1 888_splitncnn_3 890_splitncnn_2 893_splitncnn_2 894 0=0 
Convolution      Conv_192                 1 1 894 895 0=32 1=3 11=3 2=1 12=1 3=1 13=1 4=1 14=1 15=1 16=1 5=1 6=36864 
ReLU             LeakyRelu_193            1 1 895 896 0=2.000000e-01 
Split            splitncnn_47             1 2 896 896_splitncnn_0 896_splitncnn_1 
Concat           Concat_194               4 1 888_splitncnn_2 890_splitncnn_1 893_splitncnn_1 896_splitncnn_1 897 0=0 
Convolution      Conv_195                 1 1 897 898 0=32 1=3 11=3 2=1 12=1 3=1 13=1 4=1 14=1 15=1 16=1 5=1 6=46080 
ReLU             LeakyRelu_196            1 1 898 899 0=2.000000e-01 
Concat           Concat_197               5 1 888_splitncnn_1 890_splitncnn_0 893_splitncnn_0 896_splitncnn_0 899 900 0=0 
Convolution      Conv_198                 1 1 900 901 0=64 1=3 11=3 2=1 12=1 3=1 13=1 4=1 14=1 15=1 16=1 5=1 6=110592 
BinaryOp         Mul_200                  1 1 901 903 0=2 1=1 2=2.000000e-01 
BinaryOp         Add_201                  2 1 903 888_splitncnn_0 904 0=0 
BinaryOp         Mul_203                  1 1 904 906 0=2 1=1 2=2.000000e-01 
BinaryOp         Add_204                  2 1 906 856_splitncnn_0 907 0=0 
Split            splitncnn_48             1 7 907 907_splitncnn_0 907_splitncnn_1 907_splitncnn_2 907_splitncnn_3 907_splitncnn_4 907_splitncnn_5 907_splitncnn_6 
Convolution      Conv_205                 1 1 907_splitncnn_6 908 0=32 1=3 11=3 2=1 12=1 3=1 13=1 4=1 14=1 15=1 16=1 5=1 6=18432 
ReLU             LeakyRelu_206            1 1 908 909 0=2.000000e-01 
Split            splitncnn_49             1 4 909 909_splitncnn_0 909_splitncnn_1 909_splitncnn_2 909_splitncnn_3 
Concat           Concat_207               2 1 907_splitncnn_5 909_splitncnn_3 910 0=0 
Convolution      Conv_208                 1 1 910 911 0=32 1=3 11=3 2=1 12=1 3=1 13=1 4=1 14=1 15=1 16=1 5=1 6=27648 
ReLU             LeakyRelu_209            1 1 911 912 0=2.000000e-01 
Split            splitncnn_50             1 3 912 912_splitncnn_0 912_splitncnn_1 912_splitncnn_2 
Concat           Concat_210               3 1 907_splitncnn_4 909_splitncnn_2 912_splitncnn_2 913 0=0 
Convolution      Conv_211                 1 1 913 914 0=32 1=3 11=3 2=1 12=1 3=1 13=1 4=1 14=1 15=1 16=1 5=1 6=36864 
ReLU             LeakyRelu_212            1 1 914 915 0=2.000000e-01 
Split            splitncnn_51             1 2 915 915_splitncnn_0 915_splitncnn_1 
Concat           Concat_213               4 1 907_splitncnn_3 909_splitncnn_1 912_splitncnn_1 915_splitncnn_1 916 0=0 
Convolution      Conv_214                 1 1 916 917 0=32 1=3 11=3 2=1 12=1 3=1 13=1 4=1 14=1 15=1 16=1 5=1 6=46080 
ReLU             LeakyRelu_215            1 1 917 918 0=2.000000e-01 
Concat           Concat_216               5 1 907_splitncnn_2 909_splitncnn_0 912_splitncnn_0 915_splitncnn_0 918 919 0=0 
Convolution      Conv_217                 1 1 919 920 0=64 1=3 11=3 2=1 12=1 3=1 13=1 4=1 14=1 15=1 16=1 5=1 6=110592 
BinaryOp         Mul_219                  1 1 920 922 0=2 1=1 2=2.000000e-01 
BinaryOp         Add_220                  2 1 922 907_splitncnn_1 923 0=0 
Split            splitncnn_52             1 6 923 923_splitncnn_0 923_splitncnn_1 923_splitncnn_2 923_splitncnn_3 923_splitncnn_4 923_splitncnn_5 
Convolution      Conv_221                 1 1 923_splitncnn_5 924 0=32 1=3 11=3 2=1 12=1 3=1 13=1 4=1 14=1 15=1 16=1 5=1 6=18432 
ReLU             LeakyRelu_222            1 1 924 925 0=2.000000e-01 
Split            splitncnn_53             1 4 925 925_splitncnn_0 925_splitncnn_1 925_splitncnn_2 925_splitncnn_3 
Concat           Concat_223               2 1 923_splitncnn_4 925_splitncnn_3 926 0=0 
Convolution      Conv_224                 1 1 926 927 0=32 1=3 11=3 2=1 12=1 3=1 13=1 4=1 14=1 15=1 16=1 5=1 6=27648 
ReLU             LeakyRelu_225            1 1 927 928 0=2.000000e-01 
Split            splitncnn_54             1 3 928 928_splitncnn_0 928_splitncnn_1 928_splitncnn_2 
Concat           Concat_226               3 1 923_splitncnn_3 925_splitncnn_2 928_splitncnn_2 929 0=0 
Convolution      Conv_227                 1 1 929 930 0=32 1=3 11=3 2=1 12=1 3=1 13=1 4=1 14=1 15=1 16=1 5=1 6=36864 
ReLU             LeakyRelu_228            1 1 930 931 0=2.000000e-01 
Split            splitncnn_55             1 2 931 931_splitncnn_0 931_splitncnn_1 
Concat           Concat_229               4 1 923_splitncnn_2 925_splitncnn_1 928_splitncnn_1 931_splitncnn_1 932 0=0 
Convolution      Conv_230                 1 1 932 933 0=32 1=3 11=3 2=1 12=1 3=1 13=1 4=1 14=1 15=1 16=1 5=1 6=46080 
ReLU             LeakyRelu_231            1 1 933 934 0=2.000000e-01 
Concat           Concat_232               5 1 923_splitncnn_1 925_splitncnn_0 928_splitncnn_0 931_splitncnn_0 934 935 0=0 
Convolution      Conv_233                 1 1 935 936 0=64 1=3 11=3 2=1 12=1 3=1 13=1 4=1 14=1 15=1 16=1 5=1 6=110592 
BinaryOp         Mul_235                  1 1 936 938 0=2 1=1 2=2.000000e-01 
BinaryOp         Add_236                  2 1 938 923_splitncnn_0 939 0=0 
Split            splitncnn_56             1 6 939 939_splitncnn_0 939_splitncnn_1 939_splitncnn_2 939_splitncnn_3 939_splitncnn_4 939_splitncnn_5 
Convolution      Conv_237                 1 1 939_splitncnn_5 940 0=32 1=3 11=3 2=1 12=1 3=1 13=1 4=1 14=1 15=1 16=1 5=1 6=18432 
ReLU             LeakyRelu_238            1 1 940 941 0=2.000000e-01 
Split            splitncnn_57             1 4 941 941_splitncnn_0 941_splitncnn_1 941_splitncnn_2 941_splitncnn_3 
Concat           Concat_239               2 1 939_splitncnn_4 941_splitncnn_3 942 0=0 
Convolution      Conv_240                 1 1 942 943 0=32 1=3 11=3 2=1 12=1 3=1 13=1 4=1 14=1 15=1 16=1 5=1 6=27648 
ReLU             LeakyRelu_241            1 1 943 944 0=2.000000e-01 
Split            splitncnn_58             1 3 944 944_splitncnn_0 944_splitncnn_1 944_splitncnn_2 
Concat           Concat_242               3 1 939_splitncnn_3 941_splitncnn_2 944_splitncnn_2 945 0=0 
Convolution      Conv_243                 1 1 945 946 0=32 1=3 11=3 2=1 12=1 3=1 13=1 4=1 14=1 15=1 16=1 5=1 6=36864 
ReLU             LeakyRelu_244            1 1 946 947 0=2.000000e-01 
Split            splitncnn_59             1 2 947 947_splitncnn_0 947_splitncnn_1 
Concat           Concat_245               4 1 939_splitncnn_2 941_splitncnn_1 944_splitncnn_1 947_splitncnn_1 948 0=0 
Convolution      Conv_246                 1 1 948 949 0=32 1=3 11=3 2=1 12=1 3=1 13=1 4=1 14=1 15=1 16=1 5=1 6=46080 
ReLU             LeakyRelu_247            1 1 949 950 0=2.000000e-01 
Concat           Concat_248               5 1 939_splitncnn_1 941_splitncnn_0 944_splitncnn_0 947_splitncnn_0 950 951 0=0 
Convolution      Conv_249                 1 1 951 952 0=64 1=3 11=3 2=1 12=1 3=1 13=1 4=1 14=1 15=1 16=1 5=1 6=110592 
BinaryOp         Mul_251                  1 1 952 954 0=2 1=1 2=2.000000e-01 
BinaryOp         Add_252                  2 1 954 939_splitncnn_0 955 0=0 
BinaryOp         Mul_254                  1 1 955 957 0=2 1=1 2=2.000000e-01 
BinaryOp         Add_255                  2 1 957 907_splitncnn_0 958 0=0 
Split            splitncnn_60             1 7 958 958_splitncnn_0 958_splitncnn_1 958_splitncnn_2 958_splitncnn_3 958_splitncnn_4 958_splitncnn_5 958_splitncnn_6 
Convolution      Conv_256                 1 1 958_splitncnn_6 959 0=32 1=3 11=3 2=1 12=1 3=1 13=1 4=1 14=1 15=1 16=1 5=1 6=18432 
ReLU             LeakyRelu_257            1 1 959 960 0=2.000000e-01 
Split            splitncnn_61             1 4 960 960_splitncnn_0 960_splitncnn_1 960_splitncnn_2 960_splitncnn_3 
Concat           Concat_258               2 1 958_splitncnn_5 960_splitncnn_3 961 0=0 
Convolution      Conv_259                 1 1 961 962 0=32 1=3 11=3 2=1 12=1 3=1 13=1 4=1 14=1 15=1 16=1 5=1 6=27648 
ReLU             LeakyRelu_260            1 1 962 963 0=2.000000e-01 
Split            splitncnn_62             1 3 963 963_splitncnn_0 963_splitncnn_1 963_splitncnn_2 
Concat           Concat_261               3 1 958_splitncnn_4 960_splitncnn_2 963_splitncnn_2 964 0=0 
Convolution      Conv_262                 1 1 964 965 0=32 1=3 11=3 2=1 12=1 3=1 13=1 4=1 14=1 15=1 16=1 5=1 6=36864 
ReLU             LeakyRelu_263            1 1 965 966 0=2.000000e-01 
Split            splitncnn_63             1 2 966 966_splitncnn_0 966_splitncnn_1 
Concat           Concat_264               4 1 958_splitncnn_3 960_splitncnn_1 963_splitncnn_1 966_splitncnn_1 967 0=0 
Convolution      Conv_265                 1 1 967 968 0=32 1=3 11=3 2=1 12=1 3=1 13=1 4=1 14=1 15=1 16=1 5=1 6=46080 
ReLU             LeakyRelu_266            1 1 968 969 0=2.000000e-01 
Concat           Concat_267               5 1 958_splitncnn_2 960_splitncnn_0 963_splitncnn_0 966_splitncnn_0 969 970 0=0 
Convolution      Conv_268                 1 1 970 971 0=64 1=3 11=3 2=1 12=1 3=1 13=1 4=1 14=1 15=1 16=1 5=1 6=110592 
BinaryOp         Mul_270                  1 1 971 973 0=2 1=1 2=2.000000e-01 
BinaryOp         Add_271                  2 1 973 958_splitncnn_1 974 0=0 
Split            splitncnn_64             1 6 974 974_splitncnn_0 974_splitncnn_1 974_splitncnn_2 974_splitncnn_3 974_splitncnn_4 974_splitncnn_5 
Convolution      Conv_272                 1 1 974_splitncnn_5 975 0=32 1=3 11=3 2=1 12=1 3=1 13=1 4=1 14=1 15=1 16=1 5=1 6=18432 
ReLU             LeakyRelu_273            1 1 975 976 0=2.000000e-01 
Split            splitncnn_65             1 4 976 976_splitncnn_0 976_splitncnn_1 976_splitncnn_2 976_splitncnn_3 
Concat           Concat_274               2 1 974_splitncnn_4 976_splitncnn_3 977 0=0 
Convolution      Conv_275                 1 1 977 978 0=32 1=3 11=3 2=1 12=1 3=1 13=1 4=1 14=1 15=1 16=1 5=1 6=27648 
ReLU             LeakyRelu_276            1 1 978 979 0=2.000000e-01 
Split            splitncnn_66             1 3 979 979_splitncnn_0 979_splitncnn_1 979_splitncnn_2 
Concat           Concat_277               3 1 974_splitncnn_3 976_splitncnn_2 979_splitncnn_2 980 0=0 
Convolution      Conv_278                 1 1 980 981 0=32 1=3 11=3 2=1 12=1 3=1 13=1 4=1 14=1 15=1 16=1 5=1 6=36864 
ReLU             LeakyRelu_279            1 1 981 982 0=2.000000e-01 
Split            splitncnn_67             1 2 982 982_splitncnn_0 982_splitncnn_1 
Concat           Concat_280               4 1 974_splitncnn_2 976_splitncnn_1 979_splitncnn_1 982_splitncnn_1 983 0=0 
Convolution      Conv_281                 1 1 983 984 0=32 1=3 11=3 2=1 12=1 3=1 13=1 4=1 14=1 15=1 16=1 5=1 6=46080 
ReLU             LeakyRelu_282            1 1 984 985 0=2.000000e-01 
Concat           Concat_283               5 1 974_splitncnn_1 976_splitncnn_0 979_splitncnn_0 982_splitncnn_0 985 986 0=0 
Convolution      Conv_284                 1 1 986 987 0=64 1=3 11=3 2=1 12=1 3=1 13=1 4=1 14=1 15=1 16=1 5=1 6=110592 
BinaryOp         Mul_286                  1 1 987 989 0=2 1=1 2=2.000000e-01 
BinaryOp         Add_287                  2 1 989 974_splitncnn_0 990 0=0 
Split            splitncnn_68             1 6 990 990_splitncnn_0 990_splitncnn_1 990_splitncnn_2 990_splitncnn_3 990_splitncnn_4 990_splitncnn_5 
Convolution      Conv_288                 1 1 990_splitncnn_5 991 0=32 1=3 11=3 2=1 12=1 3=1 13=1 4=1 14=1 15=1 16=1 5=1 6=18432 
ReLU             LeakyRelu_289            1 1 991 992 0=2.000000e-01 
Split            splitncnn_69             1 4 992 992_splitncnn_0 992_splitncnn_1 992_splitncnn_2 992_splitncnn_3 
Concat           Concat_290               2 1 990_splitncnn_4 992_splitncnn_3 993 0=0 
Convolution      Conv_291                 1 1 993 994 0=32 1=3 11=3 2=1 12=1 3=1 13=1 4=1 14=1 15=1 16=1 5=1 6=27648 
ReLU             LeakyRelu_292            1 1 994 995 0=2.000000e-01 
Split            splitncnn_70             1 3 995 995_splitncnn_0 995_splitncnn_1 995_splitncnn_2 
Concat           Concat_293               3 1 990_splitncnn_3 992_splitncnn_2 995_splitncnn_2 996 0=0 
Convolution      Conv_294                 1 1 996 997 0=32 1=3 11=3 2=1 12=1 3=1 13=1 4=1 14=1 15=1 16=1 5=1 6=36864 
ReLU             LeakyRelu_295            1 1 997 998 0=2.000000e-01 
Split            splitncnn_71             1 2 998 998_splitncnn_0 998_splitncnn_1 
Concat           Concat_296               4 1 990_splitncnn_2 992_splitncnn_1 995_splitncnn_1 998_splitncnn_1 999 0=0 
Convolution      Conv_297                 1 1 999 1000 0=32 1=3 11=3 2=1 12=1 3=1 13=1 4=1 14=1 15=1 16=1 5=1 6=46080 
ReLU             LeakyRelu_298            1 1 1000 1001 0=2.000000e-01 
Concat           Concat_299               5 1 990_splitncnn_1 992_splitncnn_0 995_splitncnn_0 998_splitncnn_0 1001 1002 0=0 
Convolution      Conv_300                 1 1 1002 1003 0=64 1=3 11=3 2=1 12=1 3=1 13=1 4=1 14=1 15=1 16=1 5=1 6=110592 
BinaryOp         Mul_302                  1 1 1003 1005 0=2 1=1 2=2.000000e-01 
BinaryOp         Add_303                  2 1 1005 990_splitncnn_0 1006 0=0 
BinaryOp         Mul_305                  1 1 1006 1008 0=2 1=1 2=2.000000e-01 
BinaryOp         Add_306                  2 1 1008 958_splitncnn_0 1009 0=0 
Split            splitncnn_72             1 7 1009 1009_splitncnn_0 1009_splitncnn_1 1009_splitncnn_2 1009_splitncnn_3 1009_splitncnn_4 1009_splitncnn_5 1009_splitncnn_6 
Convolution      Conv_307                 1 1 1009_splitncnn_6 1010 0=32 1=3 11=3 2=1 12=1 3=1 13=1 4=1 14=1 15=1 16=1 5=1 6=18432 
ReLU             LeakyRelu_308            1 1 1010 1011 0=2.000000e-01 
Split            splitncnn_73             1 4 1011 1011_splitncnn_0 1011_splitncnn_1 1011_splitncnn_2 1011_splitncnn_3 
Concat           Concat_309               2 1 1009_splitncnn_5 1011_splitncnn_3 1012 0=0 
Convolution      Conv_310                 1 1 1012 1013 0=32 1=3 11=3 2=1 12=1 3=1 13=1 4=1 14=1 15=1 16=1 5=1 6=27648 
ReLU             LeakyRelu_311            1 1 1013 1014 0=2.000000e-01 
Split            splitncnn_74             1 3 1014 1014_splitncnn_0 1014_splitncnn_1 1014_splitncnn_2 
Concat           Concat_312               3 1 1009_splitncnn_4 1011_splitncnn_2 1014_splitncnn_2 1015 0=0 
Convolution      Conv_313                 1 1 1015 1016 0=32 1=3 11=3 2=1 12=1 3=1 13=1 4=1 14=1 15=1 16=1 5=1 6=36864 
ReLU             LeakyRelu_314            1 1 1016 1017 0=2.000000e-01 
Split            splitncnn_75             1 2 1017 1017_splitncnn_0 1017_splitncnn_1 
Concat           Concat_315               4 1 1009_splitncnn_3 1011_splitncnn_1 1014_splitncnn_1 1017_splitncnn_1 1018 0=0 
Convolution      Conv_316                 1 1 1018 1019 0=32 1=3 11=3 2=1 12=1 3=1 13=1 4=1 14=1 15=1 16=1 5=1 6=46080 
ReLU             LeakyRelu_317            1 1 1019 1020 0=2.000000e-01 
Concat           Concat_318               5 1 1009_splitncnn_2 1011_splitncnn_0 1014_splitncnn_0 1017_splitncnn_0 1020 1021 0=0 
Convolution      Conv_319                 1 1 1021 1022 0=64 1=3 11=3 2=1 12=1 3=1 13=1 4=1 14=1 15=1 16=1 5=1 6=110592 
BinaryOp         Mul_321                  1 1 1022 1024 0=2 1=1 2=2.000000e-01 
BinaryOp         Add_322                  2 1 1024 1009_splitncnn_1 1025 0=0 
Split            splitncnn_76             1 6 1025 1025_splitncnn_0 1025_splitncnn_1 1025_splitncnn_2 1025_splitncnn_3 1025_splitncnn_4 1025_splitncnn_5 
Convolution      Conv_323                 1 1 1025_splitncnn_5 1026 0=32 1=3 11=3 2=1 12=1 3=1 13=1 4=1 14=1 15=1 16=1 5=1 6=18432 
ReLU             LeakyRelu_324            1 1 1026 1027 0=2.000000e-01 
Split            splitncnn_77             1 4 1027 1027_splitncnn_0 1027_splitncnn_1 1027_splitncnn_2 1027_splitncnn_3 
Concat           Concat_325               2 1 1025_splitncnn_4 1027_splitncnn_3 1028 0=0 
Convolution      Conv_326                 1 1 1028 1029 0=32 1=3 11=3 2=1 12=1 3=1 13=1 4=1 14=1 15=1 16=1 5=1 6=27648 
ReLU             LeakyRelu_327            1 1 1029 1030 0=2.000000e-01 
Split            splitncnn_78             1 3 1030 1030_splitncnn_0 1030_splitncnn_1 1030_splitncnn_2 
Concat           Concat_328               3 1 1025_splitncnn_3 1027_splitncnn_2 1030_splitncnn_2 1031 0=0 
Convolution      Conv_329                 1 1 1031 1032 0=32 1=3 11=3 2=1 12=1 3=1 13=1 4=1 14=1 15=1 16=1 5=1 6=36864 
ReLU             LeakyRelu_330            1 1 1032 1033 0=2.000000e-01 
Split            splitncnn_79             1 2 1033 1033_splitncnn_0 1033_splitncnn_1 
Concat           Concat_331               4 1 1025_splitncnn_2 1027_splitncnn_1 1030_splitncnn_1 1033_splitncnn_1 1034 0=0 
Convolution      Conv_332                 1 1 1034 1035 0=32 1=3 11=3 2=1 12=1 3=1 13=1 4=1 14=1 15=1 16=1 5=1 6=46080 
ReLU             LeakyRelu_333            1 1 1035 1036 0=2.000000e-01 
Concat           Concat_334               5 1 1025_splitncnn_1 1027_splitncnn_0 1030_splitncnn_0 1033_splitncnn_0 1036 1037 0=0 
Convolution      Conv_335                 1 1 1037 1038 0=64 1=3 11=3 2=1 12=1 3=1 13=1 4=1 14=1 15=1 16=1 5=1 6=110592 
BinaryOp         Mul_337                  1 1 1038 1040 0=2 1=1 2=2.000000e-01 
BinaryOp         Add_338                  2 1 1040 1025_splitncnn_0 1041 0=0 
Split            splitncnn_80             1 6 1041 1041_splitncnn_0 1041_splitncnn_1 1041_splitncnn_2 1041_splitncnn_3 1041_splitncnn_4 1041_splitncnn_5 
Convolution      Conv_339                 1 1 1041_splitncnn_5 1042 0=32 1=3 11=3 2=1 12=1 3=1 13=1 4=1 14=1 15=1 16=1 5=1 6=18432 
ReLU             LeakyRelu_340            1 1 1042 1043 0=2.000000e-01 
Split            splitncnn_81             1 4 1043 1043_splitncnn_0 1043_splitncnn_1 1043_splitncnn_2 1043_splitncnn_3 
Concat           Concat_341               2 1 1041_splitncnn_4 1043_splitncnn_3 1044 0=0 
Convolution      Conv_342                 1 1 1044 1045 0=32 1=3 11=3 2=1 12=1 3=1 13=1 4=1 14=1 15=1 16=1 5=1 6=27648 
ReLU             LeakyRelu_343            1 1 1045 1046 0=2.000000e-01 
Split            splitncnn_82             1 3 1046 1046_splitncnn_0 1046_splitncnn_1 1046_splitncnn_2 
Concat           Concat_344               3 1 1041_splitncnn_3 1043_splitncnn_2 1046_splitncnn_2 1047 0=0 
Convolution      Conv_345                 1 1 1047 1048 0=32 1=3 11=3 2=1 12=1 3=1 13=1 4=1 14=1 15=1 16=1 5=1 6=36864 
ReLU             LeakyRelu_346            1 1 1048 1049 0=2.000000e-01 
Split            splitncnn_83             1 2 1049 1049_splitncnn_0 1049_splitncnn_1 
Concat           Concat_347               4 1 1041_splitncnn_2 1043_splitncnn_1 1046_splitncnn_1 1049_splitncnn_1 1050 0=0 
Convolution      Conv_348                 1 1 1050 1051 0=32 1=3 11=3 2=1 12=1 3=1 13=1 4=1 14=1 15=1 16=1 5=1 6=46080 
ReLU             LeakyRelu_349            1 1 1051 1052 0=2.000000e-01 
Concat           Concat_350               5 1 1041_splitncnn_1 1043_splitncnn_0 1046_splitncnn_0 1049_splitncnn_0 1052 1053 0=0 
Convolution      Conv_351                 1 1 1053 1054 0=64 1=3 11=3 2=1 12=1 3=1 13=1 4=1 14=1 15=1 16=1 5=1 6=110592 
BinaryOp         Mul_353                  1 1 1054 1056 0=2 1=1 2=2.000000e-01 
BinaryOp         Add_354                  2 1 1056 1041_splitncnn_0 1057 0=0 
BinaryOp         Mul_356                  1 1 1057 1059 0=2 1=1 2=2.000000e-01 
BinaryOp         Add_357                  2 1 1059 1009_splitncnn_0 1060 0=0 
Split            splitncnn_84             1 7 1060 1060_splitncnn_0 1060_splitncnn_1 1060_splitncnn_2 1060_splitncnn_3 1060_splitncnn_4 1060_splitncnn_5 1060_splitncnn_6 
Convolution      Conv_358                 1 1 1060_splitncnn_6 1061 0=32 1=3 11=3 2=1 12=1 3=1 13=1 4=1 14=1 15=1 16=1 5=1 6=18432 
ReLU             LeakyRelu_359            1 1 1061 1062 0=2.000000e-01 
Split            splitncnn_85             1 4 1062 1062_splitncnn_0 1062_splitncnn_1 1062_splitncnn_2 1062_splitncnn_3 
Concat           Concat_360               2 1 1060_splitncnn_5 1062_splitncnn_3 1063 0=0 
Convolution      Conv_361                 1 1 1063 1064 0=32 1=3 11=3 2=1 12=1 3=1 13=1 4=1 14=1 15=1 16=1 5=1 6=27648 
ReLU             LeakyRelu_362            1 1 1064 1065 0=2.000000e-01 
Split            splitncnn_86             1 3 1065 1065_splitncnn_0 1065_splitncnn_1 1065_splitncnn_2 
Concat           Concat_363               3 1 1060_splitncnn_4 1062_splitncnn_2 1065_splitncnn_2 1066 0=0 
Convolution      Conv_364                 1 1 1066 1067 0=32 1=3 11=3 2=1 12=1 3=1 13=1 4=1 14=1 15=1 16=1 5=1 6=36864 
ReLU             LeakyRelu_365            1 1 1067 1068 0=2.000000e-01 
Split            splitncnn_87             1 2 1068 1068_splitncnn_0 1068_splitncnn_1 
Concat           Concat_366               4 1 1060_splitncnn_3 1062_splitncnn_1 1065_splitncnn_1 1068_splitncnn_1 1069 0=0 
Convolution      Conv_367                 1 1 1069 1070 0=32 1=3 11=3 2=1 12=1 3=1 13=1 4=1 14=1 15=1 16=1 5=1 6=46080 
ReLU             LeakyRelu_368            1 1 1070 1071 0=2.000000e-01 
Concat           Concat_369               5 1 1060_splitncnn_2 1062_splitncnn_0 1065_splitncnn_0 1068_splitncnn_0 1071 1072 0=0 
Convolution      Conv_370                 1 1 1072 1073 0=64 1=3 11=3 2=1 12=1 3=1 13=1 4=1 14=1 15=1 16=1 5=1 6=110592 
BinaryOp         Mul_372                  1 1 1073 1075 0=2 1=1 2=2.000000e-01 
BinaryOp         Add_373                  2 1 1075 1060_splitncnn_1 1076 0=0 
Split            splitncnn_88             1 6 1076 1076_splitncnn_0 1076_splitncnn_1 1076_splitncnn_2 1076_splitncnn_3 1076_splitncnn_4 1076_splitncnn_5 
Convolution      Conv_374                 1 1 1076_splitncnn_5 1077 0=32 1=3 11=3 2=1 12=1 3=1 13=1 4=1 14=1 15=1 16=1 5=1 6=18432 
ReLU             LeakyRelu_375            1 1 1077 1078 0=2.000000e-01 
Split            splitncnn_89             1 4 1078 1078_splitncnn_0 1078_splitncnn_1 1078_splitncnn_2 1078_splitncnn_3 
Concat           Concat_376               2 1 1076_splitncnn_4 1078_splitncnn_3 1079 0=0 
Convolution      Conv_377                 1 1 1079 1080 0=32 1=3 11=3 2=1 12=1 3=1 13=1 4=1 14=1 15=1 16=1 5=1 6=27648 
ReLU             LeakyRelu_378            1 1 1080 1081 0=2.000000e-01 
Split            splitncnn_90             1 3 1081 1081_splitncnn_0 1081_splitncnn_1 1081_splitncnn_2 
Concat           Concat_379               3 1 1076_splitncnn_3 1078_splitncnn_2 1081_splitncnn_2 1082 0=0 
Convolution      Conv_380                 1 1 1082 1083 0=32 1=3 11=3 2=1 12=1 3=1 13=1 4=1 14=1 15=1 16=1 5=1 6=36864 
ReLU             LeakyRelu_381            1 1 1083 1084 0=2.000000e-01 
Split            splitncnn_91             1 2 1084 1084_splitncnn_0 1084_splitncnn_1 
Concat           Concat_382               4 1 1076_splitncnn_2 1078_splitncnn_1 1081_splitncnn_1 1084_splitncnn_1 1085 0=0 
Convolution      Conv_383                 1 1 1085 1086 0=32 1=3 11=3 2=1 12=1 3=1 13=1 4=1 14=1 15=1 16=1 5=1 6=46080 
ReLU             LeakyRelu_384            1 1 1086 1087 0=2.000000e-01 
Concat           Concat_385               5 1 1076_splitncnn_1 1078_splitncnn_0 1081_splitncnn_0 1084_splitncnn_0 1087 1088 0=0 
Convolution      Conv_386                 1 1 1088 1089 0=64 1=3 11=3 2=1 12=1 3=1 13=1 4=1 14=1 15=1 16=1 5=1 6=110592 
BinaryOp         Mul_388                  1 1 1089 1091 0=2 1=1 2=2.000000e-01 
BinaryOp         Add_389                  2 1 1091 1076_splitncnn_0 1092 0=0 
Split            splitncnn_92             1 6 1092 1092_splitncnn_0 1092_splitncnn_1 1092_splitncnn_2 1092_splitncnn_3 1092_splitncnn_4 1092_splitncnn_5 
Convolution      Conv_390                 1 1 1092_splitncnn_5 1093 0=32 1=3 11=3 2=1 12=1 3=1 13=1 4=1 14=1 15=1 16=1 5=1 6=18432 
ReLU             LeakyRelu_391            1 1 1093 1094 0=2.000000e-01 
Split            splitncnn_93             1 4 1094 1094_splitncnn_0 1094_splitncnn_1 1094_splitncnn_2 1094_splitncnn_3 
Concat           Concat_392               2 1 1092_splitncnn_4 1094_splitncnn_3 1095 0=0 
Convolution      Conv_393                 1 1 1095 1096 0=32 1=3 11=3 2=1 12=1 3=1 13=1 4=1 14=1 15=1 16=1 5=1 6=27648 
ReLU             LeakyRelu_394            1 1 1096 1097 0=2.000000e-01 
Split            splitncnn_94             1 3 1097 1097_splitncnn_0 1097_splitncnn_1 1097_splitncnn_2 
Concat           Concat_395               3 1 1092_splitncnn_3 1094_splitncnn_2 1097_splitncnn_2 1098 0=0 
Convolution      Conv_396                 1 1 1098 1099 0=32 1=3 11=3 2=1 12=1 3=1 13=1 4=1 14=1 15=1 16=1 5=1 6=36864 
ReLU             LeakyRelu_397            1 1 1099 1100 0=2.000000e-01 
Split            splitncnn_95             1 2 1100 1100_splitncnn_0 1100_splitncnn_1 
Concat           Concat_398               4 1 1092_splitncnn_2 1094_splitncnn_1 1097_splitncnn_1 1100_splitncnn_1 1101 0=0 
Convolution      Conv_399                 1 1 1101 1102 0=32 1=3 11=3 2=1 12=1 3=1 13=1 4=1 14=1 15=1 16=1 5=1 6=46080 
ReLU             LeakyRelu_400            1 1 1102 1103 0=2.000000e-01 
Concat           Concat_401               5 1 1092_splitncnn_1 1094_splitncnn_0 1097_splitncnn_0 1100_splitncnn_0 1103 1104 0=0 
Convolution      Conv_402                 1 1 1104 1105 0=64 1=3 11=3 2=1 12=1 3=1 13=1 4=1 14=1 15=1 16=1 5=1 6=110592 
BinaryOp         Mul_404                  1 1 1105 1107 0=2 1=1 2=2.000000e-01 
BinaryOp         Add_405                  2 1 1107 1092_splitncnn_0 1108 0=0 
BinaryOp         Mul_407                  1 1 1108 1110 0=2 1=1 2=2.000000e-01 
BinaryOp         Add_408                  2 1 1110 1060_splitncnn_0 1111 0=0 
Split            splitncnn_96             1 7 1111 1111_splitncnn_0 1111_splitncnn_1 1111_splitncnn_2 1111_splitncnn_3 1111_splitncnn_4 1111_splitncnn_5 1111_splitncnn_6 
Convolution      Conv_409                 1 1 1111_splitncnn_6 1112 0=32 1=3 11=3 2=1 12=1 3=1 13=1 4=1 14=1 15=1 16=1 5=1 6=18432 
ReLU             LeakyRelu_410            1 1 1112 1113 0=2.000000e-01 
Split            splitncnn_97             1 4 1113 1113_splitncnn_0 1113_splitncnn_1 1113_splitncnn_2 1113_splitncnn_3 
Concat           Concat_411               2 1 1111_splitncnn_5 1113_splitncnn_3 1114 0=0 
Convolution      Conv_412                 1 1 1114 1115 0=32 1=3 11=3 2=1 12=1 3=1 13=1 4=1 14=1 15=1 16=1 5=1 6=27648 
ReLU             LeakyRelu_413            1 1 1115 1116 0=2.000000e-01 
Split            splitncnn_98             1 3 1116 1116_splitncnn_0 1116_splitncnn_1 1116_splitncnn_2 
Concat           Concat_414               3 1 1111_splitncnn_4 1113_splitncnn_2 1116_splitncnn_2 1117 0=0 
Convolution      Conv_415                 1 1 1117 1118 0=32 1=3 11=3 2=1 12=1 3=1 13=1 4=1 14=1 15=1 16=1 5=1 6=36864 
ReLU             LeakyRelu_416            1 1 1118 1119 0=2.000000e-01 
Split            splitncnn_99             1 2 1119 1119_splitncnn_0 1119_splitncnn_1 
Concat           Concat_417               4 1 1111_splitncnn_3 1113_splitncnn_1 1116_splitncnn_1 1119_splitncnn_1 1120 0=0 
Convolution      Conv_418                 1 1 1120 1121 0=32 1=3 11=3 2=1 12=1 3=1 13=1 4=1 14=1 15=1 16=1 5=1 6=46080 
ReLU             LeakyRelu_419            1 1 1121 1122 0=2.000000e-01 
Concat           Concat_420               5 1 1111_splitncnn_2 1113_splitncnn_0 1116_splitncnn_0 1119_splitncnn_0 1122 1123 0=0 
Convolution      Conv_421                 1 1 1123 1124 0=64 1=3 11=3 2=1 12=1 3=1 13=1 4=1 14=1 15=1 16=1 5=1 6=110592 
BinaryOp         Mul_423                  1 1 1124 1126 0=2 1=1 2=2.000000e-01 
BinaryOp         Add_424                  2 1 1126 1111_splitncnn_1 1127 0=0 
Split            splitncnn_100            1 6 1127 1127_splitncnn_0 1127_splitncnn_1 1127_splitncnn_2 1127_splitncnn_3 1127_splitncnn_4 1127_splitncnn_5 
Convolution      Conv_425                 1 1 1127_splitncnn_5 1128 0=32 1=3 11=3 2=1 12=1 3=1 13=1 4=1 14=1 15=1 16=1 5=1 6=18432 
ReLU             LeakyRelu_426            1 1 1128 1129 0=2.000000e-01 
Split            splitncnn_101            1 4 1129 1129_splitncnn_0 1129_splitncnn_1 1129_splitncnn_2 1129_splitncnn_3 
Concat           Concat_427               2 1 1127_splitncnn_4 1129_splitncnn_3 1130 0=0 
Convolution      Conv_428                 1 1 1130 1131 0=32 1=3 11=3 2=1 12=1 3=1 13=1 4=1 14=1 15=1 16=1 5=1 6=27648 
ReLU             LeakyRelu_429            1 1 1131 1132 0=2.000000e-01 
Split            splitncnn_102            1 3 1132 1132_splitncnn_0 1132_splitncnn_1 1132_splitncnn_2 
Concat           Concat_430               3 1 1127_splitncnn_3 1129_splitncnn_2 1132_splitncnn_2 1133 0=0 
Convolution      Conv_431                 1 1 1133 1134 0=32 1=3 11=3 2=1 12=1 3=1 13=1 4=1 14=1 15=1 16=1 5=1 6=36864 
ReLU             LeakyRelu_432            1 1 1134 1135 0=2.000000e-01 
Split            splitncnn_103            1 2 1135 1135_splitncnn_0 1135_splitncnn_1 
Concat           Concat_433               4 1 1127_splitncnn_2 1129_splitncnn_1 1132_splitncnn_1 1135_splitncnn_1 1136 0=0 
Convolution      Conv_434                 1 1 1136 1137 0=32 1=3 11=3 2=1 12=1 3=1 13=1 4=1 14=1 15=1 16=1 5=1 6=46080 
ReLU             LeakyRelu_435            1 1 1137 1138 0=2.000000e-01 
Concat           Concat_436               5 1 1127_splitncnn_1 1129_splitncnn_0 1132_splitncnn_0 1135_splitncnn_0 1138 1139 0=0 
Convolution      Conv_437                 1 1 1139 1140 0=64 1=3 11=3 2=1 12=1 3=1 13=1 4=1 14=1 15=1 16=1 5=1 6=110592 
BinaryOp         Mul_439                  1 1 1140 1142 0=2 1=1 2=2.000000e-01 
BinaryOp         Add_440                  2 1 1142 1127_splitncnn_0 1143 0=0 
Split            splitncnn_104            1 6 1143 1143_splitncnn_0 1143_splitncnn_1 1143_splitncnn_2 1143_splitncnn_3 1143_splitncnn_4 1143_splitncnn_5 
Convolution      Conv_441                 1 1 1143_splitncnn_5 1144 0=32 1=3 11=3 2=1 12=1 3=1 13=1 4=1 14=1 15=1 16=1 5=1 6=18432 
ReLU             LeakyRelu_442            1 1 1144 1145 0=2.000000e-01 
Split            splitncnn_105            1 4 1145 1145_splitncnn_0 1145_splitncnn_1 1145_splitncnn_2 1145_splitncnn_3 
Concat           Concat_443               2 1 1143_splitncnn_4 1145_splitncnn_3 1146 0=0 
Convolution      Conv_444                 1 1 1146 1147 0=32 1=3 11=3 2=1 12=1 3=1 13=1 4=1 14=1 15=1 16=1 5=1 6=27648 
ReLU             LeakyRelu_445            1 1 1147 1148 0=2.000000e-01 
Split            splitncnn_106            1 3 1148 1148_splitncnn_0 1148_splitncnn_1 1148_splitncnn_2 
Concat           Concat_446               3 1 1143_splitncnn_3 1145_splitncnn_2 1148_splitncnn_2 1149 0=0 
Convolution      Conv_447                 1 1 1149 1150 0=32 1=3 11=3 2=1 12=1 3=1 13=1 4=1 14=1 15=1 16=1 5=1 6=36864 
ReLU             LeakyRelu_448            1 1 1150 1151 0=2.000000e-01 
Split            splitncnn_107            1 2 1151 1151_splitncnn_0 1151_splitncnn_1 
Concat           Concat_449               4 1 1143_splitncnn_2 1145_splitncnn_1 1148_splitncnn_1 1151_splitncnn_1 1152 0=0 
Convolution      Conv_450                 1 1 1152 1153 0=32 1=3 11=3 2=1 12=1 3=1 13=1 4=1 14=1 15=1 16=1 5=1 6=46080 
ReLU             LeakyRelu_451            1 1 1153 1154 0=2.000000e-01 
Concat           Concat_452               5 1 1143_splitncnn_1 1145_splitncnn_0 1148_splitncnn_0 1151_splitncnn_0 1154 1155 0=0 
Convolution      Conv_453                 1 1 1155 1156 0=64 1=3 11=3 2=1 12=1 3=1 13=1 4=1 14=1 15=1 16=1 5=1 6=110592 
BinaryOp         Mul_455                  1 1 1156 1158 0=2 1=1 2=2.000000e-01 
BinaryOp         Add_456                  2 1 1158 1143_splitncnn_0 1159 0=0 
BinaryOp         Mul_458                  1 1 1159 1161 0=2 1=1 2=2.000000e-01 
BinaryOp         Add_459                  2 1 1161 1111_splitncnn_0 1162 0=0 
Split            splitncnn_108            1 7 1162 1162_splitncnn_0 1162_splitncnn_1 1162_splitncnn_2 1162_splitncnn_3 1162_splitncnn_4 1162_splitncnn_5 1162_splitncnn_6 
Convolution      Conv_460                 1 1 1162_splitncnn_6 1163 0=32 1=3 11=3 2=1 12=1 3=1 13=1 4=1 14=1 15=1 16=1 5=1 6=18432 
ReLU             LeakyRelu_461            1 1 1163 1164 0=2.000000e-01 
Split            splitncnn_109            1 4 1164 1164_splitncnn_0 1164_splitncnn_1 1164_splitncnn_2 1164_splitncnn_3 
Concat           Concat_462               2 1 1162_splitncnn_5 1164_splitncnn_3 1165 0=0 
Convolution      Conv_463                 1 1 1165 1166 0=32 1=3 11=3 2=1 12=1 3=1 13=1 4=1 14=1 15=1 16=1 5=1 6=27648 
ReLU             LeakyRelu_464            1 1 1166 1167 0=2.000000e-01 
Split            splitncnn_110            1 3 1167 1167_splitncnn_0 1167_splitncnn_1 1167_splitncnn_2 
Concat           Concat_465               3 1 1162_splitncnn_4 1164_splitncnn_2 1167_splitncnn_2 1168 0=0 
Convolution      Conv_466                 1 1 1168 1169 0=32 1=3 11=3 2=1 12=1 3=1 13=1 4=1 14=1 15=1 16=1 5=1 6=36864 
ReLU             LeakyRelu_467            1 1 1169 1170 0=2.000000e-01 
Split            splitncnn_111            1 2 1170 1170_splitncnn_0 1170_splitncnn_1 
Concat           Concat_468               4 1 1162_splitncnn_3 1164_splitncnn_1 1167_splitncnn_1 1170_splitncnn_1 1171 0=0 
Convolution      Conv_469                 1 1 1171 1172 0=32 1=3 11=3 2=1 12=1 3=1 13=1 4=1 14=1 15=1 16=1 5=1 6=46080 
ReLU             LeakyRelu_470            1 1 1172 1173 0=2.000000e-01 
Concat           Concat_471               5 1 1162_splitncnn_2 1164_splitncnn_0 1167_splitncnn_0 1170_splitncnn_0 1173 1174 0=0 
Convolution      Conv_472                 1 1 1174 1175 0=64 1=3 11=3 2=1 12=1 3=1 13=1 4=1 14=1 15=1 16=1 5=1 6=110592 
BinaryOp         Mul_474                  1 1 1175 1177 0=2 1=1 2=2.000000e-01 
BinaryOp         Add_475                  2 1 1177 1162_splitncnn_1 1178 0=0 
Split            splitncnn_112            1 6 1178 1178_splitncnn_0 1178_splitncnn_1 1178_splitncnn_2 1178_splitncnn_3 1178_splitncnn_4 1178_splitncnn_5 
Convolution      Conv_476                 1 1 1178_splitncnn_5 1179 0=32 1=3 11=3 2=1 12=1 3=1 13=1 4=1 14=1 15=1 16=1 5=1 6=18432 
ReLU             LeakyRelu_477            1 1 1179 1180 0=2.000000e-01 
Split            splitncnn_113            1 4 1180 1180_splitncnn_0 1180_splitncnn_1 1180_splitncnn_2 1180_splitncnn_3 
Concat           Concat_478               2 1 1178_splitncnn_4 1180_splitncnn_3 1181 0=0 
Convolution      Conv_479                 1 1 1181 1182 0=32 1=3 11=3 2=1 12=1 3=1 13=1 4=1 14=1 15=1 16=1 5=1 6=27648 
ReLU             LeakyRelu_480            1 1 1182 1183 0=2.000000e-01 
Split            splitncnn_114            1 3 1183 1183_splitncnn_0 1183_splitncnn_1 1183_splitncnn_2 
Concat           Concat_481               3 1 1178_splitncnn_3 1180_splitncnn_2 1183_splitncnn_2 1184 0=0 
Convolution      Conv_482                 1 1 1184 1185 0=32 1=3 11=3 2=1 12=1 3=1 13=1 4=1 14=1 15=1 16=1 5=1 6=36864 
ReLU             LeakyRelu_483            1 1 1185 1186 0=2.000000e-01 
Split            splitncnn_115            1 2 1186 1186_splitncnn_0 1186_splitncnn_1 
Concat           Concat_484               4 1 1178_splitncnn_2 1180_splitncnn_1 1183_splitncnn_1 1186_splitncnn_1 1187 0=0 
Convolution      Conv_485                 1 1 1187 1188 0=32 1=3 11=3 2=1 12=1 3=1 13=1 4=1 14=1 15=1 16=1 5=1 6=46080 
ReLU             LeakyRelu_486            1 1 1188 1189 0=2.000000e-01 
Concat           Concat_487               5 1 1178_splitncnn_1 1180_splitncnn_0 1183_splitncnn_0 1186_splitncnn_0 1189 1190 0=0 
Convolution      Conv_488                 1 1 1190 1191 0=64 1=3 11=3 2=1 12=1 3=1 13=1 4=1 14=1 15=1 16=1 5=1 6=110592 
BinaryOp         Mul_490                  1 1 1191 1193 0=2 1=1 2=2.000000e-01 
BinaryOp         Add_491                  2 1 1193 1178_splitncnn_0 1194 0=0 
Split            splitncnn_116            1 6 1194 1194_splitncnn_0 1194_splitncnn_1 1194_splitncnn_2 1194_splitncnn_3 1194_splitncnn_4 1194_splitncnn_5 
Convolution      Conv_492                 1 1 1194_splitncnn_5 1195 0=32 1=3 11=3 2=1 12=1 3=1 13=1 4=1 14=1 15=1 16=1 5=1 6=18432 
ReLU             LeakyRelu_493            1 1 1195 1196 0=2.000000e-01 
Split            splitncnn_117            1 4 1196 1196_splitncnn_0 1196_splitncnn_1 1196_splitncnn_2 1196_splitncnn_3 
Concat           Concat_494               2 1 1194_splitncnn_4 1196_splitncnn_3 1197 0=0 
Convolution      Conv_495                 1 1 1197 1198 0=32 1=3 11=3 2=1 12=1 3=1 13=1 4=1 14=1 15=1 16=1 5=1 6=27648 
ReLU             LeakyRelu_496            1 1 1198 1199 0=2.000000e-01 
Split            splitncnn_118            1 3 1199 1199_splitncnn_0 1199_splitncnn_1 1199_splitncnn_2 
Concat           Concat_497               3 1 1194_splitncnn_3 1196_splitncnn_2 1199_splitncnn_2 1200 0=0 
Convolution      Conv_498                 1 1 1200 1201 0=32 1=3 11=3 2=1 12=1 3=1 13=1 4=1 14=1 15=1 16=1 5=1 6=36864 
ReLU             LeakyRelu_499            1 1 1201 1202 0=2.000000e-01 
Split            splitncnn_119            1 2 1202 1202_splitncnn_0 1202_splitncnn_1 
Concat           Concat_500               4 1 1194_splitncnn_2 1196_splitncnn_1 1199_splitncnn_1 1202_splitncnn_1 1203 0=0 
Convolution      Conv_501                 1 1 1203 1204 0=32 1=3 11=3 2=1 12=1 3=1 13=1 4=1 14=1 15=1 16=1 5=1 6=46080 
ReLU             LeakyRelu_502            1 1 1204 1205 0=2.000000e-01 
Concat           Concat_503               5 1 1194_splitncnn_1 1196_splitncnn_0 1199_splitncnn_0 1202_splitncnn_0 1205 1206 0=0 
Convolution      Conv_504                 1 1 1206 1207 0=64 1=3 11=3 2=1 12=1 3=1 13=1 4=1 14=1 15=1 16=1 5=1 6=110592 
BinaryOp         Mul_506                  1 1 1207 1209 0=2 1=1 2=2.000000e-01 
BinaryOp         Add_507                  2 1 1209 1194_splitncnn_0 1210 0=0 
BinaryOp         Mul_509                  1 1 1210 1212 0=2 1=1 2=2.000000e-01 
BinaryOp         Add_510                  2 1 1212 1162_splitncnn_0 1213 0=0 
Split            splitncnn_120            1 7 1213 1213_splitncnn_0 1213_splitncnn_1 1213_splitncnn_2 1213_splitncnn_3 1213_splitncnn_4 1213_splitncnn_5 1213_splitncnn_6 
Convolution      Conv_511                 1 1 1213_splitncnn_6 1214 0=32 1=3 11=3 2=1 12=1 3=1 13=1 4=1 14=1 15=1 16=1 5=1 6=18432 
ReLU             LeakyRelu_512            1 1 1214 1215 0=2.000000e-01 
Split            splitncnn_121            1 4 1215 1215_splitncnn_0 1215_splitncnn_1 1215_splitncnn_2 1215_splitncnn_3 
Concat           Concat_513               2 1 1213_splitncnn_5 1215_splitncnn_3 1216 0=0 
Convolution      Conv_514                 1 1 1216 1217 0=32 1=3 11=3 2=1 12=1 3=1 13=1 4=1 14=1 15=1 16=1 5=1 6=27648 
ReLU             LeakyRelu_515            1 1 1217 1218 0=2.000000e-01 
Split            splitncnn_122            1 3 1218 1218_splitncnn_0 1218_splitncnn_1 1218_splitncnn_2 
Concat           Concat_516               3 1 1213_splitncnn_4 1215_splitncnn_2 1218_splitncnn_2 1219 0=0 
Convolution      Conv_517                 1 1 1219 1220 0=32 1=3 11=3 2=1 12=1 3=1 13=1 4=1 14=1 15=1 16=1 5=1 6=36864 
ReLU             LeakyRelu_518            1 1 1220 1221 0=2.000000e-01 
Split            splitncnn_123            1 2 1221 1221_splitncnn_0 1221_splitncnn_1 
Concat           Concat_519               4 1 1213_splitncnn_3 1215_splitncnn_1 1218_splitncnn_1 1221_splitncnn_1 1222 0=0 
Convolution      Conv_520                 1 1 1222 1223 0=32 1=3 11=3 2=1 12=1 3=1 13=1 4=1 14=1 15=1 16=1 5=1 6=46080 
ReLU             LeakyRelu_521            1 1 1223 1224 0=2.000000e-01 
Concat           Concat_522               5 1 1213_splitncnn_2 1215_splitncnn_0 1218_splitncnn_0 1221_splitncnn_0 1224 1225 0=0 
Convolution      Conv_523                 1 1 1225 1226 0=64 1=3 11=3 2=1 12=1 3=1 13=1 4=1 14=1 15=1 16=1 5=1 6=110592 
BinaryOp         Mul_525                  1 1 1226 1228 0=2 1=1 2=2.000000e-01 
BinaryOp         Add_526                  2 1 1228 1213_splitncnn_1 1229 0=0 
Split            splitncnn_124            1 6 1229 1229_splitncnn_0 1229_splitncnn_1 1229_splitncnn_2 1229_splitncnn_3 1229_splitncnn_4 1229_splitncnn_5 
Convolution      Conv_527                 1 1 1229_splitncnn_5 1230 0=32 1=3 11=3 2=1 12=1 3=1 13=1 4=1 14=1 15=1 16=1 5=1 6=18432 
ReLU             LeakyRelu_528            1 1 1230 1231 0=2.000000e-01 
Split            splitncnn_125            1 4 1231 1231_splitncnn_0 1231_splitncnn_1 1231_splitncnn_2 1231_splitncnn_3 
Concat           Concat_529               2 1 1229_splitncnn_4 1231_splitncnn_3 1232 0=0 
Convolution      Conv_530                 1 1 1232 1233 0=32 1=3 11=3 2=1 12=1 3=1 13=1 4=1 14=1 15=1 16=1 5=1 6=27648 
ReLU             LeakyRelu_531            1 1 1233 1234 0=2.000000e-01 
Split            splitncnn_126            1 3 1234 1234_splitncnn_0 1234_splitncnn_1 1234_splitncnn_2 
Concat           Concat_532               3 1 1229_splitncnn_3 1231_splitncnn_2 1234_splitncnn_2 1235 0=0 
Convolution      Conv_533                 1 1 1235 1236 0=32 1=3 11=3 2=1 12=1 3=1 13=1 4=1 14=1 15=1 16=1 5=1 6=36864 
ReLU             LeakyRelu_534            1 1 1236 1237 0=2.000000e-01 
Split            splitncnn_127            1 2 1237 1237_splitncnn_0 1237_splitncnn_1 
Concat           Concat_535               4 1 1229_splitncnn_2 1231_splitncnn_1 1234_splitncnn_1 1237_splitncnn_1 1238 0=0 
Convolution      Conv_536                 1 1 1238 1239 0=32 1=3 11=3 2=1 12=1 3=1 13=1 4=1 14=1 15=1 16=1 5=1 6=46080 
ReLU             LeakyRelu_537            1 1 1239 1240 0=2.000000e-01 
Concat           Concat_538               5 1 1229_splitncnn_1 1231_splitncnn_0 1234_splitncnn_0 1237_splitncnn_0 1240 1241 0=0 
Convolution      Conv_539                 1 1 1241 1242 0=64 1=3 11=3 2=1 12=1 3=1 13=1 4=1 14=1 15=1 16=1 5=1 6=110592 
BinaryOp         Mul_541                  1 1 1242 1244 0=2 1=1 2=2.000000e-01 
BinaryOp         Add_542                  2 1 1244 1229_splitncnn_0 1245 0=0 
Split            splitncnn_128            1 6 1245 1245_splitncnn_0 1245_splitncnn_1 1245_splitncnn_2 1245_splitncnn_3 1245_splitncnn_4 1245_splitncnn_5 
Convolution      Conv_543                 1 1 1245_splitncnn_5 1246 0=32 1=3 11=3 2=1 12=1 3=1 13=1 4=1 14=1 15=1 16=1 5=1 6=18432 
ReLU             LeakyRelu_544            1 1 1246 1247 0=2.000000e-01 
Split            splitncnn_129            1 4 1247 1247_splitncnn_0 1247_splitncnn_1 1247_splitncnn_2 1247_splitncnn_3 
Concat           Concat_545               2 1 1245_splitncnn_4 1247_splitncnn_3 1248 0=0 
Convolution      Conv_546                 1 1 1248 1249 0=32 1=3 11=3 2=1 12=1 3=1 13=1 4=1 14=1 15=1 16=1 5=1 6=27648 
ReLU             LeakyRelu_547            1 1 1249 1250 0=2.000000e-01 
Split            splitncnn_130            1 3 1250 1250_splitncnn_0 1250_splitncnn_1 1250_splitncnn_2 
Concat           Concat_548               3 1 1245_splitncnn_3 1247_splitncnn_2 1250_splitncnn_2 1251 0=0 
Convolution      Conv_549                 1 1 1251 1252 0=32 1=3 11=3 2=1 12=1 3=1 13=1 4=1 14=1 15=1 16=1 5=1 6=36864 
ReLU             LeakyRelu_550            1 1 1252 1253 0=2.000000e-01 
Split            splitncnn_131            1 2 1253 1253_splitncnn_0 1253_splitncnn_1 
Concat           Concat_551               4 1 1245_splitncnn_2 1247_splitncnn_1 1250_splitncnn_1 1253_splitncnn_1 1254 0=0 
Convolution      Conv_552                 1 1 1254 1255 0=32 1=3 11=3 2=1 12=1 3=1 13=1 4=1 14=1 15=1 16=1 5=1 6=46080 
ReLU             LeakyRelu_553            1 1 1255 1256 0=2.000000e-01 
Concat           Concat_554               5 1 1245_splitncnn_1 1247_splitncnn_0 1250_splitncnn_0 1253_splitncnn_0 1256 1257 0=0 
Convolution      Conv_555                 1 1 1257 1258 0=64 1=3 11=3 2=1 12=1 3=1 13=1 4=1 14=1 15=1 16=1 5=1 6=110592 
BinaryOp         Mul_557                  1 1 1258 1260 0=2 1=1 2=2.000000e-01 
BinaryOp         Add_558                  2 1 1260 1245_splitncnn_0 1261 0=0 
BinaryOp         Mul_560                  1 1 1261 1263 0=2 1=1 2=2.000000e-01 
BinaryOp         Add_561                  2 1 1263 1213_splitncnn_0 1264 0=0 
Split            splitncnn_132            1 7 1264 1264_splitncnn_0 1264_splitncnn_1 1264_splitncnn_2 1264_splitncnn_3 1264_splitncnn_4 1264_splitncnn_5 1264_splitncnn_6 
Convolution      Conv_562                 1 1 1264_splitncnn_6 1265 0=32 1=3 11=3 2=1 12=1 3=1 13=1 4=1 14=1 15=1 16=1 5=1 6=18432 
ReLU             LeakyRelu_563            1 1 1265 1266 0=2.000000e-01 
Split            splitncnn_133            1 4 1266 1266_splitncnn_0 1266_splitncnn_1 1266_splitncnn_2 1266_splitncnn_3 
Concat           Concat_564               2 1 1264_splitncnn_5 1266_splitncnn_3 1267 0=0 
Convolution      Conv_565                 1 1 1267 1268 0=32 1=3 11=3 2=1 12=1 3=1 13=1 4=1 14=1 15=1 16=1 5=1 6=27648 
ReLU             LeakyRelu_566            1 1 1268 1269 0=2.000000e-01 
Split            splitncnn_134            1 3 1269 1269_splitncnn_0 1269_splitncnn_1 1269_splitncnn_2 
Concat           Concat_567               3 1 1264_splitncnn_4 1266_splitncnn_2 1269_splitncnn_2 1270 0=0 
Convolution      Conv_568                 1 1 1270 1271 0=32 1=3 11=3 2=1 12=1 3=1 13=1 4=1 14=1 15=1 16=1 5=1 6=36864 
ReLU             LeakyRelu_569            1 1 1271 1272 0=2.000000e-01 
Split            splitncnn_135            1 2 1272 1272_splitncnn_0 1272_splitncnn_1 
Concat           Concat_570               4 1 1264_splitncnn_3 1266_splitncnn_1 1269_splitncnn_1 1272_splitncnn_1 1273 0=0 
Convolution      Conv_571                 1 1 1273 1274 0=32 1=3 11=3 2=1 12=1 3=1 13=1 4=1 14=1 15=1 16=1 5=1 6=46080 
ReLU             LeakyRelu_572            1 1 1274 1275 0=2.000000e-01 
Concat           Concat_573               5 1 1264_splitncnn_2 1266_splitncnn_0 1269_splitncnn_0 1272_splitncnn_0 1275 1276 0=0 
Convolution      Conv_574                 1 1 1276 1277 0=64 1=3 11=3 2=1 12=1 3=1 13=1 4=1 14=1 15=1 16=1 5=1 6=110592 
BinaryOp         Mul_576                  1 1 1277 1279 0=2 1=1 2=2.000000e-01 
BinaryOp         Add_577                  2 1 1279 1264_splitncnn_1 1280 0=0 
Split            splitncnn_136            1 6 1280 1280_splitncnn_0 1280_splitncnn_1 1280_splitncnn_2 1280_splitncnn_3 1280_splitncnn_4 1280_splitncnn_5 
Convolution      Conv_578                 1 1 1280_splitncnn_5 1281 0=32 1=3 11=3 2=1 12=1 3=1 13=1 4=1 14=1 15=1 16=1 5=1 6=18432 
ReLU             LeakyRelu_579            1 1 1281 1282 0=2.000000e-01 
Split            splitncnn_137            1 4 1282 1282_splitncnn_0 1282_splitncnn_1 1282_splitncnn_2 1282_splitncnn_3 
Concat           Concat_580               2 1 1280_splitncnn_4 1282_splitncnn_3 1283 0=0 
Convolution      Conv_581                 1 1 1283 1284 0=32 1=3 11=3 2=1 12=1 3=1 13=1 4=1 14=1 15=1 16=1 5=1 6=27648 
ReLU             LeakyRelu_582            1 1 1284 1285 0=2.000000e-01 
Split            splitncnn_138            1 3 1285 1285_splitncnn_0 1285_splitncnn_1 1285_splitncnn_2 
Concat           Concat_583               3 1 1280_splitncnn_3 1282_splitncnn_2 1285_splitncnn_2 1286 0=0 
Convolution      Conv_584                 1 1 1286 1287 0=32 1=3 11=3 2=1 12=1 3=1 13=1 4=1 14=1 15=1 16=1 5=1 6=36864 
ReLU             LeakyRelu_585            1 1 1287 1288 0=2.000000e-01 
Split            splitncnn_139            1 2 1288 1288_splitncnn_0 1288_splitncnn_1 
Concat           Concat_586               4 1 1280_splitncnn_2 1282_splitncnn_1 1285_splitncnn_1 1288_splitncnn_1 1289 0=0 
Convolution      Conv_587                 1 1 1289 1290 0=32 1=3 11=3 2=1 12=1 3=1 13=1 4=1 14=1 15=1 16=1 5=1 6=46080 
ReLU             LeakyRelu_588            1 1 1290 1291 0=2.000000e-01 
Concat           Concat_589               5 1 1280_splitncnn_1 1282_splitncnn_0 1285_splitncnn_0 1288_splitncnn_0 1291 1292 0=0 
Convolution      Conv_590                 1 1 1292 1293 0=64 1=3 11=3 2=1 12=1 3=1 13=1 4=1 14=1 15=1 16=1 5=1 6=110592 
BinaryOp         Mul_592                  1 1 1293 1295 0=2 1=1 2=2.000000e-01 
BinaryOp         Add_593                  2 1 1295 1280_splitncnn_0 1296 0=0 
Split            splitncnn_140            1 6 1296 1296_splitncnn_0 1296_splitncnn_1 1296_splitncnn_2 1296_splitncnn_3 1296_splitncnn_4 1296_splitncnn_5 
Convolution      Conv_594                 1 1 1296_splitncnn_5 1297 0=32 1=3 11=3 2=1 12=1 3=1 13=1 4=1 14=1 15=1 16=1 5=1 6=18432 
ReLU             LeakyRelu_595            1 1 1297 1298 0=2.000000e-01 
Split            splitncnn_141            1 4 1298 1298_splitncnn_0 1298_splitncnn_1 1298_splitncnn_2 1298_splitncnn_3 
Concat           Concat_596               2 1 1296_splitncnn_4 1298_splitncnn_3 1299 0=0 
Convolution      Conv_597                 1 1 1299 1300 0=32 1=3 11=3 2=1 12=1 3=1 13=1 4=1 14=1 15=1 16=1 5=1 6=27648 
ReLU             LeakyRelu_598            1 1 1300 1301 0=2.000000e-01 
Split            splitncnn_142            1 3 1301 1301_splitncnn_0 1301_splitncnn_1 1301_splitncnn_2 
Concat           Concat_599               3 1 1296_splitncnn_3 1298_splitncnn_2 1301_splitncnn_2 1302 0=0 
Convolution      Conv_600                 1 1 1302 1303 0=32 1=3 11=3 2=1 12=1 3=1 13=1 4=1 14=1 15=1 16=1 5=1 6=36864 
ReLU             LeakyRelu_601            1 1 1303 1304 0=2.000000e-01 
Split            splitncnn_143            1 2 1304 1304_splitncnn_0 1304_splitncnn_1 
Concat           Concat_602               4 1 1296_splitncnn_2 1298_splitncnn_1 1301_splitncnn_1 1304_splitncnn_1 1305 0=0 
Convolution      Conv_603                 1 1 1305 1306 0=32 1=3 11=3 2=1 12=1 3=1 13=1 4=1 14=1 15=1 16=1 5=1 6=46080 
ReLU             LeakyRelu_604            1 1 1306 1307 0=2.000000e-01 
Concat           Concat_605               5 1 1296_splitncnn_1 1298_splitncnn_0 1301_splitncnn_0 1304_splitncnn_0 1307 1308 0=0 
Convolution      Conv_606                 1 1 1308 1309 0=64 1=3 11=3 2=1 12=1 3=1 13=1 4=1 14=1 15=1 16=1 5=1 6=110592 
BinaryOp         Mul_608                  1 1 1309 1311 0=2 1=1 2=2.000000e-01 
BinaryOp         Add_609                  2 1 1311 1296_splitncnn_0 1312 0=0 
BinaryOp         Mul_611                  1 1 1312 1314 0=2 1=1 2=2.000000e-01 
BinaryOp         Add_612                  2 1 1314 1264_splitncnn_0 1315 0=0 
Split            splitncnn_144            1 7 1315 1315_splitncnn_0 1315_splitncnn_1 1315_splitncnn_2 1315_splitncnn_3 1315_splitncnn_4 1315_splitncnn_5 1315_splitncnn_6 
Convolution      Conv_613                 1 1 1315_splitncnn_6 1316 0=32 1=3 11=3 2=1 12=1 3=1 13=1 4=1 14=1 15=1 16=1 5=1 6=18432 
ReLU             LeakyRelu_614            1 1 1316 1317 0=2.000000e-01 
Split            splitncnn_145            1 4 1317 1317_splitncnn_0 1317_splitncnn_1 1317_splitncnn_2 1317_splitncnn_3 
Concat           Concat_615               2 1 1315_splitncnn_5 1317_splitncnn_3 1318 0=0 
Convolution      Conv_616                 1 1 1318 1319 0=32 1=3 11=3 2=1 12=1 3=1 13=1 4=1 14=1 15=1 16=1 5=1 6=27648 
ReLU             LeakyRelu_617            1 1 1319 1320 0=2.000000e-01 
Split            splitncnn_146            1 3 1320 1320_splitncnn_0 1320_splitncnn_1 1320_splitncnn_2 
Concat           Concat_618               3 1 1315_splitncnn_4 1317_splitncnn_2 1320_splitncnn_2 1321 0=0 
Convolution      Conv_619                 1 1 1321 1322 0=32 1=3 11=3 2=1 12=1 3=1 13=1 4=1 14=1 15=1 16=1 5=1 6=36864 
ReLU             LeakyRelu_620            1 1 1322 1323 0=2.000000e-01 
Split            splitncnn_147            1 2 1323 1323_splitncnn_0 1323_splitncnn_1 
Concat           Concat_621               4 1 1315_splitncnn_3 1317_splitncnn_1 1320_splitncnn_1 1323_splitncnn_1 1324 0=0 
Convolution      Conv_622                 1 1 1324 1325 0=32 1=3 11=3 2=1 12=1 3=1 13=1 4=1 14=1 15=1 16=1 5=1 6=46080 
ReLU             LeakyRelu_623            1 1 1325 1326 0=2.000000e-01 
Concat           Concat_624               5 1 1315_splitncnn_2 1317_splitncnn_0 1320_splitncnn_0 1323_splitncnn_0 1326 1327 0=0 
Convolution      Conv_625                 1 1 1327 1328 0=64 1=3 11=3 2=1 12=1 3=1 13=1 4=1 14=1 15=1 16=1 5=1 6=110592 
BinaryOp         Mul_627                  1 1 1328 1330 0=2 1=1 2=2.000000e-01 
BinaryOp         Add_628                  2 1 1330 1315_splitncnn_1 1331 0=0 
Split            splitncnn_148            1 6 1331 1331_splitncnn_0 1331_splitncnn_1 1331_splitncnn_2 1331_splitncnn_3 1331_splitncnn_4 1331_splitncnn_5 
Convolution      Conv_629                 1 1 1331_splitncnn_5 1332 0=32 1=3 11=3 2=1 12=1 3=1 13=1 4=1 14=1 15=1 16=1 5=1 6=18432 
ReLU             LeakyRelu_630            1 1 1332 1333 0=2.000000e-01 
Split            splitncnn_149            1 4 1333 1333_splitncnn_0 1333_splitncnn_1 1333_splitncnn_2 1333_splitncnn_3 
Concat           Concat_631               2 1 1331_splitncnn_4 1333_splitncnn_3 1334 0=0 
Convolution      Conv_632                 1 1 1334 1335 0=32 1=3 11=3 2=1 12=1 3=1 13=1 4=1 14=1 15=1 16=1 5=1 6=27648 
ReLU             LeakyRelu_633            1 1 1335 1336 0=2.000000e-01 
Split            splitncnn_150            1 3 1336 1336_splitncnn_0 1336_splitncnn_1 1336_splitncnn_2 
Concat           Concat_634               3 1 1331_splitncnn_3 1333_splitncnn_2 1336_splitncnn_2 1337 0=0 
Convolution      Conv_635                 1 1 1337 1338 0=32 1=3 11=3 2=1 12=1 3=1 13=1 4=1 14=1 15=1 16=1 5=1 6=36864 
ReLU             LeakyRelu_636            1 1 1338 1339 0=2.000000e-01 
Split            splitncnn_151            1 2 1339 1339_splitncnn_0 1339_splitncnn_1 
Concat           Concat_637               4 1 1331_splitncnn_2 1333_splitncnn_1 1336_splitncnn_1 1339_splitncnn_1 1340 0=0 
Convolution      Conv_638                 1 1 1340 1341 0=32 1=3 11=3 2=1 12=1 3=1 13=1 4=1 14=1 15=1 16=1 5=1 6=46080 
ReLU             LeakyRelu_639            1 1 1341 1342 0=2.000000e-01 
Concat           Concat_640               5 1 1331_splitncnn_1 1333_splitncnn_0 1336_splitncnn_0 1339_splitncnn_0 1342 1343 0=0 
Convolution      Conv_641                 1 1 1343 1344 0=64 1=3 11=3 2=1 12=1 3=1 13=1 4=1 14=1 15=1 16=1 5=1 6=110592 
BinaryOp         Mul_643                  1 1 1344 1346 0=2 1=1 2=2.000000e-01 
BinaryOp         Add_644                  2 1 1346 1331_splitncnn_0 1347 0=0 
Split            splitncnn_152            1 6 1347 1347_splitncnn_0 1347_splitncnn_1 1347_splitncnn_2 1347_splitncnn_3 1347_splitncnn_4 1347_splitncnn_5 
Convolution      Conv_645                 1 1 1347_splitncnn_5 1348 0=32 1=3 11=3 2=1 12=1 3=1 13=1 4=1 14=1 15=1 16=1 5=1 6=18432 
ReLU             LeakyRelu_646            1 1 1348 1349 0=2.000000e-01 
Split            splitncnn_153            1 4 1349 1349_splitncnn_0 1349_splitncnn_1 1349_splitncnn_2 1349_splitncnn_3 
Concat           Concat_647               2 1 1347_splitncnn_4 1349_splitncnn_3 1350 0=0 
Convolution      Conv_648                 1 1 1350 1351 0=32 1=3 11=3 2=1 12=1 3=1 13=1 4=1 14=1 15=1 16=1 5=1 6=27648 
ReLU             LeakyRelu_649            1 1 1351 1352 0=2.000000e-01 
Split            splitncnn_154            1 3 1352 1352_splitncnn_0 1352_splitncnn_1 1352_splitncnn_2 
Concat           Concat_650               3 1 1347_splitncnn_3 1349_splitncnn_2 1352_splitncnn_2 1353 0=0 
Convolution      Conv_651                 1 1 1353 1354 0=32 1=3 11=3 2=1 12=1 3=1 13=1 4=1 14=1 15=1 16=1 5=1 6=36864 
ReLU             LeakyRelu_652            1 1 1354 1355 0=2.000000e-01 
Split            splitncnn_155            1 2 1355 1355_splitncnn_0 1355_splitncnn_1 
Concat           Concat_653               4 1 1347_splitncnn_2 1349_splitncnn_1 1352_splitncnn_1 1355_splitncnn_1 1356 0=0 
Convolution      Conv_654                 1 1 1356 1357 0=32 1=3 11=3 2=1 12=1 3=1 13=1 4=1 14=1 15=1 16=1 5=1 6=46080 
ReLU             LeakyRelu_655            1 1 1357 1358 0=2.000000e-01 
Concat           Concat_656               5 1 1347_splitncnn_1 1349_splitncnn_0 1352_splitncnn_0 1355_splitncnn_0 1358 1359 0=0 
Convolution      Conv_657                 1 1 1359 1360 0=64 1=3 11=3 2=1 12=1 3=1 13=1 4=1 14=1 15=1 16=1 5=1 6=110592 
BinaryOp         Mul_659                  1 1 1360 1362 0=2 1=1 2=2.000000e-01 
BinaryOp         Add_660                  2 1 1362 1347_splitncnn_0 1363 0=0 
BinaryOp         Mul_662                  1 1 1363 1365 0=2 1=1 2=2.000000e-01 
BinaryOp         Add_663                  2 1 1365 1315_splitncnn_0 1366 0=0 
Split            splitncnn_156            1 7 1366 1366_splitncnn_0 1366_splitncnn_1 1366_splitncnn_2 1366_splitncnn_3 1366_splitncnn_4 1366_splitncnn_5 1366_splitncnn_6 
Convolution      Conv_664                 1 1 1366_splitncnn_6 1367 0=32 1=3 11=3 2=1 12=1 3=1 13=1 4=1 14=1 15=1 16=1 5=1 6=18432 
ReLU             LeakyRelu_665            1 1 1367 1368 0=2.000000e-01 
Split            splitncnn_157            1 4 1368 1368_splitncnn_0 1368_splitncnn_1 1368_splitncnn_2 1368_splitncnn_3 
Concat           Concat_666               2 1 1366_splitncnn_5 1368_splitncnn_3 1369 0=0 
Convolution      Conv_667                 1 1 1369 1370 0=32 1=3 11=3 2=1 12=1 3=1 13=1 4=1 14=1 15=1 16=1 5=1 6=27648 
ReLU             LeakyRelu_668            1 1 1370 1371 0=2.000000e-01 
Split            splitncnn_158            1 3 1371 1371_splitncnn_0 1371_splitncnn_1 1371_splitncnn_2 
Concat           Concat_669               3 1 1366_splitncnn_4 1368_splitncnn_2 1371_splitncnn_2 1372 0=0 
Convolution      Conv_670                 1 1 1372 1373 0=32 1=3 11=3 2=1 12=1 3=1 13=1 4=1 14=1 15=1 16=1 5=1 6=36864 
ReLU             LeakyRelu_671            1 1 1373 1374 0=2.000000e-01 
Split            splitncnn_159            1 2 1374 1374_splitncnn_0 1374_splitncnn_1 
Concat           Concat_672               4 1 1366_splitncnn_3 1368_splitncnn_1 1371_splitncnn_1 1374_splitncnn_1 1375 0=0 
Convolution      Conv_673                 1 1 1375 1376 0=32 1=3 11=3 2=1 12=1 3=1 13=1 4=1 14=1 15=1 16=1 5=1 6=46080 
ReLU             LeakyRelu_674            1 1 1376 1377 0=2.000000e-01 
Concat           Concat_675               5 1 1366_splitncnn_2 1368_splitncnn_0 1371_splitncnn_0 1374_splitncnn_0 1377 1378 0=0 
Convolution      Conv_676                 1 1 1378 1379 0=64 1=3 11=3 2=1 12=1 3=1 13=1 4=1 14=1 15=1 16=1 5=1 6=110592 
BinaryOp         Mul_678                  1 1 1379 1381 0=2 1=1 2=2.000000e-01 
BinaryOp         Add_679                  2 1 1381 1366_splitncnn_1 1382 0=0 
Split            splitncnn_160            1 6 1382 1382_splitncnn_0 1382_splitncnn_1 1382_splitncnn_2 1382_splitncnn_3 1382_splitncnn_4 1382_splitncnn_5 
Convolution      Conv_680                 1 1 1382_splitncnn_5 1383 0=32 1=3 11=3 2=1 12=1 3=1 13=1 4=1 14=1 15=1 16=1 5=1 6=18432 
ReLU             LeakyRelu_681            1 1 1383 1384 0=2.000000e-01 
Split            splitncnn_161            1 4 1384 1384_splitncnn_0 1384_splitncnn_1 1384_splitncnn_2 1384_splitncnn_3 
Concat           Concat_682               2 1 1382_splitncnn_4 1384_splitncnn_3 1385 0=0 
Convolution      Conv_683                 1 1 1385 1386 0=32 1=3 11=3 2=1 12=1 3=1 13=1 4=1 14=1 15=1 16=1 5=1 6=27648 
ReLU             LeakyRelu_684            1 1 1386 1387 0=2.000000e-01 
Split            splitncnn_162            1 3 1387 1387_splitncnn_0 1387_splitncnn_1 1387_splitncnn_2 
Concat           Concat_685               3 1 1382_splitncnn_3 1384_splitncnn_2 1387_splitncnn_2 1388 0=0 
Convolution      Conv_686                 1 1 1388 1389 0=32 1=3 11=3 2=1 12=1 3=1 13=1 4=1 14=1 15=1 16=1 5=1 6=36864 
ReLU             LeakyRelu_687            1 1 1389 1390 0=2.000000e-01 
Split            splitncnn_163            1 2 1390 1390_splitncnn_0 1390_splitncnn_1 
Concat           Concat_688               4 1 1382_splitncnn_2 1384_splitncnn_1 1387_splitncnn_1 1390_splitncnn_1 1391 0=0 
Convolution      Conv_689                 1 1 1391 1392 0=32 1=3 11=3 2=1 12=1 3=1 13=1 4=1 14=1 15=1 16=1 5=1 6=46080 
ReLU             LeakyRelu_690            1 1 1392 1393 0=2.000000e-01 
Concat           Concat_691               5 1 1382_splitncnn_1 1384_splitncnn_0 1387_splitncnn_0 1390_splitncnn_0 1393 1394 0=0 
Convolution      Conv_692                 1 1 1394 1395 0=64 1=3 11=3 2=1 12=1 3=1 13=1 4=1 14=1 15=1 16=1 5=1 6=110592 
BinaryOp         Mul_694                  1 1 1395 1397 0=2 1=1 2=2.000000e-01 
BinaryOp         Add_695                  2 1 1397 1382_splitncnn_0 1398 0=0 
Split            splitncnn_164            1 6 1398 1398_splitncnn_0 1398_splitncnn_1 1398_splitncnn_2 1398_splitncnn_3 1398_splitncnn_4 1398_splitncnn_5 
Convolution      Conv_696                 1 1 1398_splitncnn_5 1399 0=32 1=3 11=3 2=1 12=1 3=1 13=1 4=1 14=1 15=1 16=1 5=1 6=18432 
ReLU             LeakyRelu_697            1 1 1399 1400 0=2.000000e-01 
Split            splitncnn_165            1 4 1400 1400_splitncnn_0 1400_splitncnn_1 1400_splitncnn_2 1400_splitncnn_3 
Concat           Concat_698               2 1 1398_splitncnn_4 1400_splitncnn_3 1401 0=0 
Convolution      Conv_699                 1 1 1401 1402 0=32 1=3 11=3 2=1 12=1 3=1 13=1 4=1 14=1 15=1 16=1 5=1 6=27648 
ReLU             LeakyRelu_700            1 1 1402 1403 0=2.000000e-01 
Split            splitncnn_166            1 3 1403 1403_splitncnn_0 1403_splitncnn_1 1403_splitncnn_2 
Concat           Concat_701               3 1 1398_splitncnn_3 1400_splitncnn_2 1403_splitncnn_2 1404 0=0 
Convolution      Conv_702                 1 1 1404 1405 0=32 1=3 11=3 2=1 12=1 3=1 13=1 4=1 14=1 15=1 16=1 5=1 6=36864 
ReLU             LeakyRelu_703            1 1 1405 1406 0=2.000000e-01 
Split            splitncnn_167            1 2 1406 1406_splitncnn_0 1406_splitncnn_1 
Concat           Concat_704               4 1 1398_splitncnn_2 1400_splitncnn_1 1403_splitncnn_1 1406_splitncnn_1 1407 0=0 
Convolution      Conv_705                 1 1 1407 1408 0=32 1=3 11=3 2=1 12=1 3=1 13=1 4=1 14=1 15=1 16=1 5=1 6=46080 
ReLU             LeakyRelu_706            1 1 1408 1409 0=2.000000e-01 
Concat           Concat_707               5 1 1398_splitncnn_1 1400_splitncnn_0 1403_splitncnn_0 1406_splitncnn_0 1409 1410 0=0 
Convolution      Conv_708                 1 1 1410 1411 0=64 1=3 11=3 2=1 12=1 3=1 13=1 4=1 14=1 15=1 16=1 5=1 6=110592 
BinaryOp         Mul_710                  1 1 1411 1413 0=2 1=1 2=2.000000e-01 
BinaryOp         Add_711                  2 1 1413 1398_splitncnn_0 1414 0=0 
BinaryOp         Mul_713                  1 1 1414 1416 0=2 1=1 2=2.000000e-01 
BinaryOp         Add_714                  2 1 1416 1366_splitncnn_0 1417 0=0 
Split            splitncnn_168            1 7 1417 1417_splitncnn_0 1417_splitncnn_1 1417_splitncnn_2 1417_splitncnn_3 1417_splitncnn_4 1417_splitncnn_5 1417_splitncnn_6 
Convolution      Conv_715                 1 1 1417_splitncnn_6 1418 0=32 1=3 11=3 2=1 12=1 3=1 13=1 4=1 14=1 15=1 16=1 5=1 6=18432 
ReLU             LeakyRelu_716            1 1 1418 1419 0=2.000000e-01 
Split            splitncnn_169            1 4 1419 1419_splitncnn_0 1419_splitncnn_1 1419_splitncnn_2 1419_splitncnn_3 
Concat           Concat_717               2 1 1417_splitncnn_5 1419_splitncnn_3 1420 0=0 
Convolution      Conv_718                 1 1 1420 1421 0=32 1=3 11=3 2=1 12=1 3=1 13=1 4=1 14=1 15=1 16=1 5=1 6=27648 
ReLU             LeakyRelu_719            1 1 1421 1422 0=2.000000e-01 
Split            splitncnn_170            1 3 1422 1422_splitncnn_0 1422_splitncnn_1 1422_splitncnn_2 
Concat           Concat_720               3 1 1417_splitncnn_4 1419_splitncnn_2 1422_splitncnn_2 1423 0=0 
Convolution      Conv_721                 1 1 1423 1424 0=32 1=3 11=3 2=1 12=1 3=1 13=1 4=1 14=1 15=1 16=1 5=1 6=36864 
ReLU             LeakyRelu_722            1 1 1424 1425 0=2.000000e-01 
Split            splitncnn_171            1 2 1425 1425_splitncnn_0 1425_splitncnn_1 
Concat           Concat_723               4 1 1417_splitncnn_3 1419_splitncnn_1 1422_splitncnn_1 1425_splitncnn_1 1426 0=0 
Convolution      Conv_724                 1 1 1426 1427 0=32 1=3 11=3 2=1 12=1 3=1 13=1 4=1 14=1 15=1 16=1 5=1 6=46080 
ReLU             LeakyRelu_725            1 1 1427 1428 0=2.000000e-01 
Concat           Concat_726               5 1 1417_splitncnn_2 1419_splitncnn_0 1422_splitncnn_0 1425_splitncnn_0 1428 1429 0=0 
Convolution      Conv_727                 1 1 1429 1430 0=64 1=3 11=3 2=1 12=1 3=1 13=1 4=1 14=1 15=1 16=1 5=1 6=110592 
BinaryOp         Mul_729                  1 1 1430 1432 0=2 1=1 2=2.000000e-01 
BinaryOp         Add_730                  2 1 1432 1417_splitncnn_1 1433 0=0 
Split            splitncnn_172            1 6 1433 1433_splitncnn_0 1433_splitncnn_1 1433_splitncnn_2 1433_splitncnn_3 1433_splitncnn_4 1433_splitncnn_5 
Convolution      Conv_731                 1 1 1433_splitncnn_5 1434 0=32 1=3 11=3 2=1 12=1 3=1 13=1 4=1 14=1 15=1 16=1 5=1 6=18432 
ReLU             LeakyRelu_732            1 1 1434 1435 0=2.000000e-01 
Split            splitncnn_173            1 4 1435 1435_splitncnn_0 1435_splitncnn_1 1435_splitncnn_2 1435_splitncnn_3 
Concat           Concat_733               2 1 1433_splitncnn_4 1435_splitncnn_3 1436 0=0 
Convolution      Conv_734                 1 1 1436 1437 0=32 1=3 11=3 2=1 12=1 3=1 13=1 4=1 14=1 15=1 16=1 5=1 6=27648 
ReLU             LeakyRelu_735            1 1 1437 1438 0=2.000000e-01 
Split            splitncnn_174            1 3 1438 1438_splitncnn_0 1438_splitncnn_1 1438_splitncnn_2 
Concat           Concat_736               3 1 1433_splitncnn_3 1435_splitncnn_2 1438_splitncnn_2 1439 0=0 
Convolution      Conv_737                 1 1 1439 1440 0=32 1=3 11=3 2=1 12=1 3=1 13=1 4=1 14=1 15=1 16=1 5=1 6=36864 
ReLU             LeakyRelu_738            1 1 1440 1441 0=2.000000e-01 
Split            splitncnn_175            1 2 1441 1441_splitncnn_0 1441_splitncnn_1 
Concat           Concat_739               4 1 1433_splitncnn_2 1435_splitncnn_1 1438_splitncnn_1 1441_splitncnn_1 1442 0=0 
Convolution      Conv_740                 1 1 1442 1443 0=32 1=3 11=3 2=1 12=1 3=1 13=1 4=1 14=1 15=1 16=1 5=1 6=46080 
ReLU             LeakyRelu_741            1 1 1443 1444 0=2.000000e-01 
Concat           Concat_742               5 1 1433_splitncnn_1 1435_splitncnn_0 1438_splitncnn_0 1441_splitncnn_0 1444 1445 0=0 
Convolution      Conv_743                 1 1 1445 1446 0=64 1=3 11=3 2=1 12=1 3=1 13=1 4=1 14=1 15=1 16=1 5=1 6=110592 
BinaryOp         Mul_745                  1 1 1446 1448 0=2 1=1 2=2.000000e-01 
BinaryOp         Add_746                  2 1 1448 1433_splitncnn_0 1449 0=0 
Split            splitncnn_176            1 6 1449 1449_splitncnn_0 1449_splitncnn_1 1449_splitncnn_2 1449_splitncnn_3 1449_splitncnn_4 1449_splitncnn_5 
Convolution      Conv_747                 1 1 1449_splitncnn_5 1450 0=32 1=3 11=3 2=1 12=1 3=1 13=1 4=1 14=1 15=1 16=1 5=1 6=18432 
ReLU             LeakyRelu_748            1 1 1450 1451 0=2.000000e-01 
Split            splitncnn_177            1 4 1451 1451_splitncnn_0 1451_splitncnn_1 1451_splitncnn_2 1451_splitncnn_3 
Concat           Concat_749               2 1 1449_splitncnn_4 1451_splitncnn_3 1452 0=0 
Convolution      Conv_750                 1 1 1452 1453 0=32 1=3 11=3 2=1 12=1 3=1 13=1 4=1 14=1 15=1 16=1 5=1 6=27648 
ReLU             LeakyRelu_751            1 1 1453 1454 0=2.000000e-01 
Split            splitncnn_178            1 3 1454 1454_splitncnn_0 1454_splitncnn_1 1454_splitncnn_2 
Concat           Concat_752               3 1 1449_splitncnn_3 1451_splitncnn_2 1454_splitncnn_2 1455 0=0 
Convolution      Conv_753                 1 1 1455 1456 0=32 1=3 11=3 2=1 12=1 3=1 13=1 4=1 14=1 15=1 16=1 5=1 6=36864 
ReLU             LeakyRelu_754            1 1 1456 1457 0=2.000000e-01 
Split            splitncnn_179            1 2 1457 1457_splitncnn_0 1457_splitncnn_1 
Concat           Concat_755               4 1 1449_splitncnn_2 1451_splitncnn_1 1454_splitncnn_1 1457_splitncnn_1 1458 0=0 
Convolution      Conv_756                 1 1 1458 1459 0=32 1=3 11=3 2=1 12=1 3=1 13=1 4=1 14=1 15=1 16=1 5=1 6=46080 
ReLU             LeakyRelu_757            1 1 1459 1460 0=2.000000e-01 
Concat           Concat_758               5 1 1449_splitncnn_1 1451_splitncnn_0 1454_splitncnn_0 1457_splitncnn_0 1460 1461 0=0 
Convolution      Conv_759                 1 1 1461 1462 0=64 1=3 11=3 2=1 12=1 3=1 13=1 4=1 14=1 15=1 16=1 5=1 6=110592 
BinaryOp         Mul_761                  1 1 1462 1464 0=2 1=1 2=2.000000e-01 
BinaryOp         Add_762                  2 1 1464 1449_splitncnn_0 1465 0=0 
BinaryOp         Mul_764                  1 1 1465 1467 0=2 1=1 2=2.000000e-01 
BinaryOp         Add_765                  2 1 1467 1417_splitncnn_0 1468 0=0 
Split            splitncnn_180            1 7 1468 1468_splitncnn_0 1468_splitncnn_1 1468_splitncnn_2 1468_splitncnn_3 1468_splitncnn_4 1468_splitncnn_5 1468_splitncnn_6 
Convolution      Conv_766                 1 1 1468_splitncnn_6 1469 0=32 1=3 11=3 2=1 12=1 3=1 13=1 4=1 14=1 15=1 16=1 5=1 6=18432 
ReLU             LeakyRelu_767            1 1 1469 1470 0=2.000000e-01 
Split            splitncnn_181            1 4 1470 1470_splitncnn_0 1470_splitncnn_1 1470_splitncnn_2 1470_splitncnn_3 
Concat           Concat_768               2 1 1468_splitncnn_5 1470_splitncnn_3 1471 0=0 
Convolution      Conv_769                 1 1 1471 1472 0=32 1=3 11=3 2=1 12=1 3=1 13=1 4=1 14=1 15=1 16=1 5=1 6=27648 
ReLU             LeakyRelu_770            1 1 1472 1473 0=2.000000e-01 
Split            splitncnn_182            1 3 1473 1473_splitncnn_0 1473_splitncnn_1 1473_splitncnn_2 
Concat           Concat_771               3 1 1468_splitncnn_4 1470_splitncnn_2 1473_splitncnn_2 1474 0=0 
Convolution      Conv_772                 1 1 1474 1475 0=32 1=3 11=3 2=1 12=1 3=1 13=1 4=1 14=1 15=1 16=1 5=1 6=36864 
ReLU             LeakyRelu_773            1 1 1475 1476 0=2.000000e-01 
Split            splitncnn_183            1 2 1476 1476_splitncnn_0 1476_splitncnn_1 
Concat           Concat_774               4 1 1468_splitncnn_3 1470_splitncnn_1 1473_splitncnn_1 1476_splitncnn_1 1477 0=0 
Convolution      Conv_775                 1 1 1477 1478 0=32 1=3 11=3 2=1 12=1 3=1 13=1 4=1 14=1 15=1 16=1 5=1 6=46080 
ReLU             LeakyRelu_776            1 1 1478 1479 0=2.000000e-01 
Concat           Concat_777               5 1 1468_splitncnn_2 1470_splitncnn_0 1473_splitncnn_0 1476_splitncnn_0 1479 1480 0=0 
Convolution      Conv_778                 1 1 1480 1481 0=64 1=3 11=3 2=1 12=1 3=1 13=1 4=1 14=1 15=1 16=1 5=1 6=110592 
BinaryOp         Mul_780                  1 1 1481 1483 0=2 1=1 2=2.000000e-01 
BinaryOp         Add_781                  2 1 1483 1468_splitncnn_1 1484 0=0 
Split            splitncnn_184            1 6 1484 1484_splitncnn_0 1484_splitncnn_1 1484_splitncnn_2 1484_splitncnn_3 1484_splitncnn_4 1484_splitncnn_5 
Convolution      Conv_782                 1 1 1484_splitncnn_5 1485 0=32 1=3 11=3 2=1 12=1 3=1 13=1 4=1 14=1 15=1 16=1 5=1 6=18432 
ReLU             LeakyRelu_783            1 1 1485 1486 0=2.000000e-01 
Split            splitncnn_185            1 4 1486 1486_splitncnn_0 1486_splitncnn_1 1486_splitncnn_2 1486_splitncnn_3 
Concat           Concat_784               2 1 1484_splitncnn_4 1486_splitncnn_3 1487 0=0 
Convolution      Conv_785                 1 1 1487 1488 0=32 1=3 11=3 2=1 12=1 3=1 13=1 4=1 14=1 15=1 16=1 5=1 6=27648 
ReLU             LeakyRelu_786            1 1 1488 1489 0=2.000000e-01 
Split            splitncnn_186            1 3 1489 1489_splitncnn_0 1489_splitncnn_1 1489_splitncnn_2 
Concat           Concat_787               3 1 1484_splitncnn_3 1486_splitncnn_2 1489_splitncnn_2 1490 0=0 
Convolution      Conv_788                 1 1 1490 1491 0=32 1=3 11=3 2=1 12=1 3=1 13=1 4=1 14=1 15=1 16=1 5=1 6=36864 
ReLU             LeakyRelu_789            1 1 1491 1492 0=2.000000e-01 
Split            splitncnn_187            1 2 1492 1492_splitncnn_0 1492_splitncnn_1 
Concat           Concat_790               4 1 1484_splitncnn_2 1486_splitncnn_1 1489_splitncnn_1 1492_splitncnn_1 1493 0=0 
Convolution      Conv_791                 1 1 1493 1494 0=32 1=3 11=3 2=1 12=1 3=1 13=1 4=1 14=1 15=1 16=1 5=1 6=46080 
ReLU             LeakyRelu_792            1 1 1494 1495 0=2.000000e-01 
Concat           Concat_793               5 1 1484_splitncnn_1 1486_splitncnn_0 1489_splitncnn_0 1492_splitncnn_0 1495 1496 0=0 
Convolution      Conv_794                 1 1 1496 1497 0=64 1=3 11=3 2=1 12=1 3=1 13=1 4=1 14=1 15=1 16=1 5=1 6=110592 
BinaryOp         Mul_796                  1 1 1497 1499 0=2 1=1 2=2.000000e-01 
BinaryOp         Add_797                  2 1 1499 1484_splitncnn_0 1500 0=0 
Split            splitncnn_188            1 6 1500 1500_splitncnn_0 1500_splitncnn_1 1500_splitncnn_2 1500_splitncnn_3 1500_splitncnn_4 1500_splitncnn_5 
Convolution      Conv_798                 1 1 1500_splitncnn_5 1501 0=32 1=3 11=3 2=1 12=1 3=1 13=1 4=1 14=1 15=1 16=1 5=1 6=18432 
ReLU             LeakyRelu_799            1 1 1501 1502 0=2.000000e-01 
Split            splitncnn_189            1 4 1502 1502_splitncnn_0 1502_splitncnn_1 1502_splitncnn_2 1502_splitncnn_3 
Concat           Concat_800               2 1 1500_splitncnn_4 1502_splitncnn_3 1503 0=0 
Convolution      Conv_801                 1 1 1503 1504 0=32 1=3 11=3 2=1 12=1 3=1 13=1 4=1 14=1 15=1 16=1 5=1 6=27648 
ReLU             LeakyRelu_802            1 1 1504 1505 0=2.000000e-01 
Split            splitncnn_190            1 3 1505 1505_splitncnn_0 1505_splitncnn_1 1505_splitncnn_2 
Concat           Concat_803               3 1 1500_splitncnn_3 1502_splitncnn_2 1505_splitncnn_2 1506 0=0 
Convolution      Conv_804                 1 1 1506 1507 0=32 1=3 11=3 2=1 12=1 3=1 13=1 4=1 14=1 15=1 16=1 5=1 6=36864 
ReLU             LeakyRelu_805            1 1 1507 1508 0=2.000000e-01 
Split            splitncnn_191            1 2 1508 1508_splitncnn_0 1508_splitncnn_1 
Concat           Concat_806               4 1 1500_splitncnn_2 1502_splitncnn_1 1505_splitncnn_1 1508_splitncnn_1 1509 0=0 
Convolution      Conv_807                 1 1 1509 1510 0=32 1=3 11=3 2=1 12=1 3=1 13=1 4=1 14=1 15=1 16=1 5=1 6=46080 
ReLU             LeakyRelu_808            1 1 1510 1511 0=2.000000e-01 
Concat           Concat_809               5 1 1500_splitncnn_1 1502_splitncnn_0 1505_splitncnn_0 1508_splitncnn_0 1511 1512 0=0 
Convolution      Conv_810                 1 1 1512 1513 0=64 1=3 11=3 2=1 12=1 3=1 13=1 4=1 14=1 15=1 16=1 5=1 6=110592 
BinaryOp         Mul_812                  1 1 1513 1515 0=2 1=1 2=2.000000e-01 
BinaryOp         Add_813                  2 1 1515 1500_splitncnn_0 1516 0=0 
BinaryOp         Mul_815                  1 1 1516 1518 0=2 1=1 2=2.000000e-01 
BinaryOp         Add_816                  2 1 1518 1468_splitncnn_0 1519 0=0 
Split            splitncnn_192            1 7 1519 1519_splitncnn_0 1519_splitncnn_1 1519_splitncnn_2 1519_splitncnn_3 1519_splitncnn_4 1519_splitncnn_5 1519_splitncnn_6 
Convolution      Conv_817                 1 1 1519_splitncnn_6 1520 0=32 1=3 11=3 2=1 12=1 3=1 13=1 4=1 14=1 15=1 16=1 5=1 6=18432 
ReLU             LeakyRelu_818            1 1 1520 1521 0=2.000000e-01 
Split            splitncnn_193            1 4 1521 1521_splitncnn_0 1521_splitncnn_1 1521_splitncnn_2 1521_splitncnn_3 
Concat           Concat_819               2 1 1519_splitncnn_5 1521_splitncnn_3 1522 0=0 
Convolution      Conv_820                 1 1 1522 1523 0=32 1=3 11=3 2=1 12=1 3=1 13=1 4=1 14=1 15=1 16=1 5=1 6=27648 
ReLU             LeakyRelu_821            1 1 1523 1524 0=2.000000e-01 
Split            splitncnn_194            1 3 1524 1524_splitncnn_0 1524_splitncnn_1 1524_splitncnn_2 
Concat           Concat_822               3 1 1519_splitncnn_4 1521_splitncnn_2 1524_splitncnn_2 1525 0=0 
Convolution      Conv_823                 1 1 1525 1526 0=32 1=3 11=3 2=1 12=1 3=1 13=1 4=1 14=1 15=1 16=1 5=1 6=36864 
ReLU             LeakyRelu_824            1 1 1526 1527 0=2.000000e-01 
Split            splitncnn_195            1 2 1527 1527_splitncnn_0 1527_splitncnn_1 
Concat           Concat_825               4 1 1519_splitncnn_3 1521_splitncnn_1 1524_splitncnn_1 1527_splitncnn_1 1528 0=0 
Convolution      Conv_826                 1 1 1528 1529 0=32 1=3 11=3 2=1 12=1 3=1 13=1 4=1 14=1 15=1 16=1 5=1 6=46080 
ReLU             LeakyRelu_827            1 1 1529 1530 0=2.000000e-01 
Concat           Concat_828               5 1 1519_splitncnn_2 1521_splitncnn_0 1524_splitncnn_0 1527_splitncnn_0 1530 1531 0=0 
Convolution      Conv_829                 1 1 1531 1532 0=64 1=3 11=3 2=1 12=1 3=1 13=1 4=1 14=1 15=1 16=1 5=1 6=110592 
BinaryOp         Mul_831                  1 1 1532 1534 0=2 1=1 2=2.000000e-01 
BinaryOp         Add_832                  2 1 1534 1519_splitncnn_1 1535 0=0 
Split            splitncnn_196            1 6 1535 1535_splitncnn_0 1535_splitncnn_1 1535_splitncnn_2 1535_splitncnn_3 1535_splitncnn_4 1535_splitncnn_5 
Convolution      Conv_833                 1 1 1535_splitncnn_5 1536 0=32 1=3 11=3 2=1 12=1 3=1 13=1 4=1 14=1 15=1 16=1 5=1 6=18432 
ReLU             LeakyRelu_834            1 1 1536 1537 0=2.000000e-01 
Split            splitncnn_197            1 4 1537 1537_splitncnn_0 1537_splitncnn_1 1537_splitncnn_2 1537_splitncnn_3 
Concat           Concat_835               2 1 1535_splitncnn_4 1537_splitncnn_3 1538 0=0 
Convolution      Conv_836                 1 1 1538 1539 0=32 1=3 11=3 2=1 12=1 3=1 13=1 4=1 14=1 15=1 16=1 5=1 6=27648 
ReLU             LeakyRelu_837            1 1 1539 1540 0=2.000000e-01 
Split            splitncnn_198            1 3 1540 1540_splitncnn_0 1540_splitncnn_1 1540_splitncnn_2 
Concat           Concat_838               3 1 1535_splitncnn_3 1537_splitncnn_2 1540_splitncnn_2 1541 0=0 
Convolution      Conv_839                 1 1 1541 1542 0=32 1=3 11=3 2=1 12=1 3=1 13=1 4=1 14=1 15=1 16=1 5=1 6=36864 
ReLU             LeakyRelu_840            1 1 1542 1543 0=2.000000e-01 
Split            splitncnn_199            1 2 1543 1543_splitncnn_0 1543_splitncnn_1 
Concat           Concat_841               4 1 1535_splitncnn_2 1537_splitncnn_1 1540_splitncnn_1 1543_splitncnn_1 1544 0=0 
Convolution      Conv_842                 1 1 1544 1545 0=32 1=3 11=3 2=1 12=1 3=1 13=1 4=1 14=1 15=1 16=1 5=1 6=46080 
ReLU             LeakyRelu_843            1 1 1545 1546 0=2.000000e-01 
Concat           Concat_844               5 1 1535_splitncnn_1 1537_splitncnn_0 1540_splitncnn_0 1543_splitncnn_0 1546 1547 0=0 
Convolution      Conv_845                 1 1 1547 1548 0=64 1=3 11=3 2=1 12=1 3=1 13=1 4=1 14=1 15=1 16=1 5=1 6=110592 
BinaryOp         Mul_847                  1 1 1548 1550 0=2 1=1 2=2.000000e-01 
BinaryOp         Add_848                  2 1 1550 1535_splitncnn_0 1551 0=0 
Split            splitncnn_200            1 6 1551 1551_splitncnn_0 1551_splitncnn_1 1551_splitncnn_2 1551_splitncnn_3 1551_splitncnn_4 1551_splitncnn_5 
Convolution      Conv_849                 1 1 1551_splitncnn_5 1552 0=32 1=3 11=3 2=1 12=1 3=1 13=1 4=1 14=1 15=1 16=1 5=1 6=18432 
ReLU             LeakyRelu_850            1 1 1552 1553 0=2.000000e-01 
Split            splitncnn_201            1 4 1553 1553_splitncnn_0 1553_splitncnn_1 1553_splitncnn_2 1553_splitncnn_3 
Concat           Concat_851               2 1 1551_splitncnn_4 1553_splitncnn_3 1554 0=0 
Convolution      Conv_852                 1 1 1554 1555 0=32 1=3 11=3 2=1 12=1 3=1 13=1 4=1 14=1 15=1 16=1 5=1 6=27648 
ReLU             LeakyRelu_853            1 1 1555 1556 0=2.000000e-01 
Split            splitncnn_202            1 3 1556 1556_splitncnn_0 1556_splitncnn_1 1556_splitncnn_2 
Concat           Concat_854               3 1 1551_splitncnn_3 1553_splitncnn_2 1556_splitncnn_2 1557 0=0 
Convolution      Conv_855                 1 1 1557 1558 0=32 1=3 11=3 2=1 12=1 3=1 13=1 4=1 14=1 15=1 16=1 5=1 6=36864 
ReLU             LeakyRelu_856            1 1 1558 1559 0=2.000000e-01 
Split            splitncnn_203            1 2 1559 1559_splitncnn_0 1559_splitncnn_1 
Concat           Concat_857               4 1 1551_splitncnn_2 1553_splitncnn_1 1556_splitncnn_1 1559_splitncnn_1 1560 0=0 
Convolution      Conv_858                 1 1 1560 1561 0=32 1=3 11=3 2=1 12=1 3=1 13=1 4=1 14=1 15=1 16=1 5=1 6=46080 
ReLU             LeakyRelu_859            1 1 1561 1562 0=2.000000e-01 
Concat           Concat_860               5 1 1551_splitncnn_1 1553_splitncnn_0 1556_splitncnn_0 1559_splitncnn_0 1562 1563 0=0 
Convolution      Conv_861                 1 1 1563 1564 0=64 1=3 11=3 2=1 12=1 3=1 13=1 4=1 14=1 15=1 16=1 5=1 6=110592 
BinaryOp         Mul_863                  1 1 1564 1566 0=2 1=1 2=2.000000e-01 
BinaryOp         Add_864                  2 1 1566 1551_splitncnn_0 1567 0=0 
BinaryOp         Mul_866                  1 1 1567 1569 0=2 1=1 2=2.000000e-01 
BinaryOp         Add_867                  2 1 1569 1519_splitncnn_0 1570 0=0 
Split            splitncnn_204            1 7 1570 1570_splitncnn_0 1570_splitncnn_1 1570_splitncnn_2 1570_splitncnn_3 1570_splitncnn_4 1570_splitncnn_5 1570_splitncnn_6 
Convolution      Conv_868                 1 1 1570_splitncnn_6 1571 0=32 1=3 11=3 2=1 12=1 3=1 13=1 4=1 14=1 15=1 16=1 5=1 6=18432 
ReLU             LeakyRelu_869            1 1 1571 1572 0=2.000000e-01 
Split            splitncnn_205            1 4 1572 1572_splitncnn_0 1572_splitncnn_1 1572_splitncnn_2 1572_splitncnn_3 
Concat           Concat_870               2 1 1570_splitncnn_5 1572_splitncnn_3 1573 0=0 
Convolution      Conv_871                 1 1 1573 1574 0=32 1=3 11=3 2=1 12=1 3=1 13=1 4=1 14=1 15=1 16=1 5=1 6=27648 
ReLU             LeakyRelu_872            1 1 1574 1575 0=2.000000e-01 
Split            splitncnn_206            1 3 1575 1575_splitncnn_0 1575_splitncnn_1 1575_splitncnn_2 
Concat           Concat_873               3 1 1570_splitncnn_4 1572_splitncnn_2 1575_splitncnn_2 1576 0=0 
Convolution      Conv_874                 1 1 1576 1577 0=32 1=3 11=3 2=1 12=1 3=1 13=1 4=1 14=1 15=1 16=1 5=1 6=36864 
ReLU             LeakyRelu_875            1 1 1577 1578 0=2.000000e-01 
Split            splitncnn_207            1 2 1578 1578_splitncnn_0 1578_splitncnn_1 
Concat           Concat_876               4 1 1570_splitncnn_3 1572_splitncnn_1 1575_splitncnn_1 1578_splitncnn_1 1579 0=0 
Convolution      Conv_877                 1 1 1579 1580 0=32 1=3 11=3 2=1 12=1 3=1 13=1 4=1 14=1 15=1 16=1 5=1 6=46080 
ReLU             LeakyRelu_878            1 1 1580 1581 0=2.000000e-01 
Concat           Concat_879               5 1 1570_splitncnn_2 1572_splitncnn_0 1575_splitncnn_0 1578_splitncnn_0 1581 1582 0=0 
Convolution      Conv_880                 1 1 1582 1583 0=64 1=3 11=3 2=1 12=1 3=1 13=1 4=1 14=1 15=1 16=1 5=1 6=110592 
BinaryOp         Mul_882                  1 1 1583 1585 0=2 1=1 2=2.000000e-01 
BinaryOp         Add_883                  2 1 1585 1570_splitncnn_1 1586 0=0 
Split            splitncnn_208            1 6 1586 1586_splitncnn_0 1586_splitncnn_1 1586_splitncnn_2 1586_splitncnn_3 1586_splitncnn_4 1586_splitncnn_5 
Convolution      Conv_884                 1 1 1586_splitncnn_5 1587 0=32 1=3 11=3 2=1 12=1 3=1 13=1 4=1 14=1 15=1 16=1 5=1 6=18432 
ReLU             LeakyRelu_885            1 1 1587 1588 0=2.000000e-01 
Split            splitncnn_209            1 4 1588 1588_splitncnn_0 1588_splitncnn_1 1588_splitncnn_2 1588_splitncnn_3 
Concat           Concat_886               2 1 1586_splitncnn_4 1588_splitncnn_3 1589 0=0 
Convolution      Conv_887                 1 1 1589 1590 0=32 1=3 11=3 2=1 12=1 3=1 13=1 4=1 14=1 15=1 16=1 5=1 6=27648 
ReLU             LeakyRelu_888            1 1 1590 1591 0=2.000000e-01 
Split            splitncnn_210            1 3 1591 1591_splitncnn_0 1591_splitncnn_1 1591_splitncnn_2 
Concat           Concat_889               3 1 1586_splitncnn_3 1588_splitncnn_2 1591_splitncnn_2 1592 0=0 
Convolution      Conv_890                 1 1 1592 1593 0=32 1=3 11=3 2=1 12=1 3=1 13=1 4=1 14=1 15=1 16=1 5=1 6=36864 
ReLU             LeakyRelu_891            1 1 1593 1594 0=2.000000e-01 
Split            splitncnn_211            1 2 1594 1594_splitncnn_0 1594_splitncnn_1 
Concat           Concat_892               4 1 1586_splitncnn_2 1588_splitncnn_1 1591_splitncnn_1 1594_splitncnn_1 1595 0=0 
Convolution      Conv_893                 1 1 1595 1596 0=32 1=3 11=3 2=1 12=1 3=1 13=1 4=1 14=1 15=1 16=1 5=1 6=46080 
ReLU             LeakyRelu_894            1 1 1596 1597 0=2.000000e-01 
Concat           Concat_895               5 1 1586_splitncnn_1 1588_splitncnn_0 1591_splitncnn_0 1594_splitncnn_0 1597 1598 0=0 
Convolution      Conv_896                 1 1 1598 1599 0=64 1=3 11=3 2=1 12=1 3=1 13=1 4=1 14=1 15=1 16=1 5=1 6=110592 
BinaryOp         Mul_898                  1 1 1599 1601 0=2 1=1 2=2.000000e-01 
BinaryOp         Add_899                  2 1 1601 1586_splitncnn_0 1602 0=0 
Split            splitncnn_212            1 6 1602 1602_splitncnn_0 1602_splitncnn_1 1602_splitncnn_2 1602_splitncnn_3 1602_splitncnn_4 1602_splitncnn_5 
Convolution      Conv_900                 1 1 1602_splitncnn_5 1603 0=32 1=3 11=3 2=1 12=1 3=1 13=1 4=1 14=1 15=1 16=1 5=1 6=18432 
ReLU             LeakyRelu_901            1 1 1603 1604 0=2.000000e-01 
Split            splitncnn_213            1 4 1604 1604_splitncnn_0 1604_splitncnn_1 1604_splitncnn_2 1604_splitncnn_3 
Concat           Concat_902               2 1 1602_splitncnn_4 1604_splitncnn_3 1605 0=0 
Convolution      Conv_903                 1 1 1605 1606 0=32 1=3 11=3 2=1 12=1 3=1 13=1 4=1 14=1 15=1 16=1 5=1 6=27648 
ReLU             LeakyRelu_904            1 1 1606 1607 0=2.000000e-01 
Split            splitncnn_214            1 3 1607 1607_splitncnn_0 1607_splitncnn_1 1607_splitncnn_2 
Concat           Concat_905               3 1 1602_splitncnn_3 1604_splitncnn_2 1607_splitncnn_2 1608 0=0 
Convolution      Conv_906                 1 1 1608 1609 0=32 1=3 11=3 2=1 12=1 3=1 13=1 4=1 14=1 15=1 16=1 5=1 6=36864 
ReLU             LeakyRelu_907            1 1 1609 1610 0=2.000000e-01 
Split            splitncnn_215            1 2 1610 1610_splitncnn_0 1610_splitncnn_1 
Concat           Concat_908               4 1 1602_splitncnn_2 1604_splitncnn_1 1607_splitncnn_1 1610_splitncnn_1 1611 0=0 
Convolution      Conv_909                 1 1 1611 1612 0=32 1=3 11=3 2=1 12=1 3=1 13=1 4=1 14=1 15=1 16=1 5=1 6=46080 
ReLU             LeakyRelu_910            1 1 1612 1613 0=2.000000e-01 
Concat           Concat_911               5 1 1602_splitncnn_1 1604_splitncnn_0 1607_splitncnn_0 1610_splitncnn_0 1613 1614 0=0 
Convolution      Conv_912                 1 1 1614 1615 0=64 1=3 11=3 2=1 12=1 3=1 13=1 4=1 14=1 15=1 16=1 5=1 6=110592 
BinaryOp         Mul_914                  1 1 1615 1617 0=2 1=1 2=2.000000e-01 
BinaryOp         Add_915                  2 1 1617 1602_splitncnn_0 1618 0=0 
BinaryOp         Mul_917                  1 1 1618 1620 0=2 1=1 2=2.000000e-01 
BinaryOp         Add_918                  2 1 1620 1570_splitncnn_0 1621 0=0 
Split            splitncnn_216            1 7 1621 1621_splitncnn_0 1621_splitncnn_1 1621_splitncnn_2 1621_splitncnn_3 1621_splitncnn_4 1621_splitncnn_5 1621_splitncnn_6 
Convolution      Conv_919                 1 1 1621_splitncnn_6 1622 0=32 1=3 11=3 2=1 12=1 3=1 13=1 4=1 14=1 15=1 16=1 5=1 6=18432 
ReLU             LeakyRelu_920            1 1 1622 1623 0=2.000000e-01 
Split            splitncnn_217            1 4 1623 1623_splitncnn_0 1623_splitncnn_1 1623_splitncnn_2 1623_splitncnn_3 
Concat           Concat_921               2 1 1621_splitncnn_5 1623_splitncnn_3 1624 0=0 
Convolution      Conv_922                 1 1 1624 1625 0=32 1=3 11=3 2=1 12=1 3=1 13=1 4=1 14=1 15=1 16=1 5=1 6=27648 
ReLU             LeakyRelu_923            1 1 1625 1626 0=2.000000e-01 
Split            splitncnn_218            1 3 1626 1626_splitncnn_0 1626_splitncnn_1 1626_splitncnn_2 
Concat           Concat_924               3 1 1621_splitncnn_4 1623_splitncnn_2 1626_splitncnn_2 1627 0=0 
Convolution      Conv_925                 1 1 1627 1628 0=32 1=3 11=3 2=1 12=1 3=1 13=1 4=1 14=1 15=1 16=1 5=1 6=36864 
ReLU             LeakyRelu_926            1 1 1628 1629 0=2.000000e-01 
Split            splitncnn_219            1 2 1629 1629_splitncnn_0 1629_splitncnn_1 
Concat           Concat_927               4 1 1621_splitncnn_3 1623_splitncnn_1 1626_splitncnn_1 1629_splitncnn_1 1630 0=0 
Convolution      Conv_928                 1 1 1630 1631 0=32 1=3 11=3 2=1 12=1 3=1 13=1 4=1 14=1 15=1 16=1 5=1 6=46080 
ReLU             LeakyRelu_929            1 1 1631 1632 0=2.000000e-01 
Concat           Concat_930               5 1 1621_splitncnn_2 1623_splitncnn_0 1626_splitncnn_0 1629_splitncnn_0 1632 1633 0=0 
Convolution      Conv_931                 1 1 1633 1634 0=64 1=3 11=3 2=1 12=1 3=1 13=1 4=1 14=1 15=1 16=1 5=1 6=110592 
BinaryOp         Mul_933                  1 1 1634 1636 0=2 1=1 2=2.000000e-01 
BinaryOp         Add_934                  2 1 1636 1621_splitncnn_1 1637 0=0 
Split            splitncnn_220            1 6 1637 1637_splitncnn_0 1637_splitncnn_1 1637_splitncnn_2 1637_splitncnn_3 1637_splitncnn_4 1637_splitncnn_5 
Convolution      Conv_935                 1 1 1637_splitncnn_5 1638 0=32 1=3 11=3 2=1 12=1 3=1 13=1 4=1 14=1 15=1 16=1 5=1 6=18432 
ReLU             LeakyRelu_936            1 1 1638 1639 0=2.000000e-01 
Split            splitncnn_221            1 4 1639 1639_splitncnn_0 1639_splitncnn_1 1639_splitncnn_2 1639_splitncnn_3 
Concat           Concat_937               2 1 1637_splitncnn_4 1639_splitncnn_3 1640 0=0 
Convolution      Conv_938                 1 1 1640 1641 0=32 1=3 11=3 2=1 12=1 3=1 13=1 4=1 14=1 15=1 16=1 5=1 6=27648 
ReLU             LeakyRelu_939            1 1 1641 1642 0=2.000000e-01 
Split            splitncnn_222            1 3 1642 1642_splitncnn_0 1642_splitncnn_1 1642_splitncnn_2 
Concat           Concat_940               3 1 1637_splitncnn_3 1639_splitncnn_2 1642_splitncnn_2 1643 0=0 
Convolution      Conv_941                 1 1 1643 1644 0=32 1=3 11=3 2=1 12=1 3=1 13=1 4=1 14=1 15=1 16=1 5=1 6=36864 
ReLU             LeakyRelu_942            1 1 1644 1645 0=2.000000e-01 
Split            splitncnn_223            1 2 1645 1645_splitncnn_0 1645_splitncnn_1 
Concat           Concat_943               4 1 1637_splitncnn_2 1639_splitncnn_1 1642_splitncnn_1 1645_splitncnn_1 1646 0=0 
Convolution      Conv_944                 1 1 1646 1647 0=32 1=3 11=3 2=1 12=1 3=1 13=1 4=1 14=1 15=1 16=1 5=1 6=46080 
ReLU             LeakyRelu_945            1 1 1647 1648 0=2.000000e-01 
Concat           Concat_946               5 1 1637_splitncnn_1 1639_splitncnn_0 1642_splitncnn_0 1645_splitncnn_0 1648 1649 0=0 
Convolution      Conv_947                 1 1 1649 1650 0=64 1=3 11=3 2=1 12=1 3=1 13=1 4=1 14=1 15=1 16=1 5=1 6=110592 
BinaryOp         Mul_949                  1 1 1650 1652 0=2 1=1 2=2.000000e-01 
BinaryOp         Add_950                  2 1 1652 1637_splitncnn_0 1653 0=0 
Split            splitncnn_224            1 6 1653 1653_splitncnn_0 1653_splitncnn_1 1653_splitncnn_2 1653_splitncnn_3 1653_splitncnn_4 1653_splitncnn_5 
Convolution      Conv_951                 1 1 1653_splitncnn_5 1654 0=32 1=3 11=3 2=1 12=1 3=1 13=1 4=1 14=1 15=1 16=1 5=1 6=18432 
ReLU             LeakyRelu_952            1 1 1654 1655 0=2.000000e-01 
Split            splitncnn_225            1 4 1655 1655_splitncnn_0 1655_splitncnn_1 1655_splitncnn_2 1655_splitncnn_3 
Concat           Concat_953               2 1 1653_splitncnn_4 1655_splitncnn_3 1656 0=0 
Convolution      Conv_954                 1 1 1656 1657 0=32 1=3 11=3 2=1 12=1 3=1 13=1 4=1 14=1 15=1 16=1 5=1 6=27648 
ReLU             LeakyRelu_955            1 1 1657 1658 0=2.000000e-01 
Split            splitncnn_226            1 3 1658 1658_splitncnn_0 1658_splitncnn_1 1658_splitncnn_2 
Concat           Concat_956               3 1 1653_splitncnn_3 1655_splitncnn_2 1658_splitncnn_2 1659 0=0 
Convolution      Conv_957                 1 1 1659 1660 0=32 1=3 11=3 2=1 12=1 3=1 13=1 4=1 14=1 15=1 16=1 5=1 6=36864 
ReLU             LeakyRelu_958            1 1 1660 1661 0=2.000000e-01 
Split            splitncnn_227            1 2 1661 1661_splitncnn_0 1661_splitncnn_1 
Concat           Concat_959               4 1 1653_splitncnn_2 1655_splitncnn_1 1658_splitncnn_1 1661_splitncnn_1 1662 0=0 
Convolution      Conv_960                 1 1 1662 1663 0=32 1=3 11=3 2=1 12=1 3=1 13=1 4=1 14=1 15=1 16=1 5=1 6=46080 
ReLU             LeakyRelu_961            1 1 1663 1664 0=2.000000e-01 
Concat           Concat_962               5 1 1653_splitncnn_1 1655_splitncnn_0 1658_splitncnn_0 1661_splitncnn_0 1664 1665 0=0 
Convolution      Conv_963                 1 1 1665 1666 0=64 1=3 11=3 2=1 12=1 3=1 13=1 4=1 14=1 15=1 16=1 5=1 6=110592 
BinaryOp         Mul_965                  1 1 1666 1668 0=2 1=1 2=2.000000e-01 
BinaryOp         Add_966                  2 1 1668 1653_splitncnn_0 1669 0=0 
BinaryOp         Mul_968                  1 1 1669 1671 0=2 1=1 2=2.000000e-01 
BinaryOp         Add_969                  2 1 1671 1621_splitncnn_0 1672 0=0 
Split            splitncnn_228            1 7 1672 1672_splitncnn_0 1672_splitncnn_1 1672_splitncnn_2 1672_splitncnn_3 1672_splitncnn_4 1672_splitncnn_5 1672_splitncnn_6 
Convolution      Conv_970                 1 1 1672_splitncnn_6 1673 0=32 1=3 11=3 2=1 12=1 3=1 13=1 4=1 14=1 15=1 16=1 5=1 6=18432 
ReLU             LeakyRelu_971            1 1 1673 1674 0=2.000000e-01 
Split            splitncnn_229            1 4 1674 1674_splitncnn_0 1674_splitncnn_1 1674_splitncnn_2 1674_splitncnn_3 
Concat           Concat_972               2 1 1672_splitncnn_5 1674_splitncnn_3 1675 0=0 
Convolution      Conv_973                 1 1 1675 1676 0=32 1=3 11=3 2=1 12=1 3=1 13=1 4=1 14=1 15=1 16=1 5=1 6=27648 
ReLU             LeakyRelu_974            1 1 1676 1677 0=2.000000e-01 
Split            splitncnn_230            1 3 1677 1677_splitncnn_0 1677_splitncnn_1 1677_splitncnn_2 
Concat           Concat_975               3 1 1672_splitncnn_4 1674_splitncnn_2 1677_splitncnn_2 1678 0=0 
Convolution      Conv_976                 1 1 1678 1679 0=32 1=3 11=3 2=1 12=1 3=1 13=1 4=1 14=1 15=1 16=1 5=1 6=36864 
ReLU             LeakyRelu_977            1 1 1679 1680 0=2.000000e-01 
Split            splitncnn_231            1 2 1680 1680_splitncnn_0 1680_splitncnn_1 
Concat           Concat_978               4 1 1672_splitncnn_3 1674_splitncnn_1 1677_splitncnn_1 1680_splitncnn_1 1681 0=0 
Convolution      Conv_979                 1 1 1681 1682 0=32 1=3 11=3 2=1 12=1 3=1 13=1 4=1 14=1 15=1 16=1 5=1 6=46080 
ReLU             LeakyRelu_980            1 1 1682 1683 0=2.000000e-01 
Concat           Concat_981               5 1 1672_splitncnn_2 1674_splitncnn_0 1677_splitncnn_0 1680_splitncnn_0 1683 1684 0=0 
Convolution      Conv_982                 1 1 1684 1685 0=64 1=3 11=3 2=1 12=1 3=1 13=1 4=1 14=1 15=1 16=1 5=1 6=110592 
BinaryOp         Mul_984                  1 1 1685 1687 0=2 1=1 2=2.000000e-01 
BinaryOp         Add_985                  2 1 1687 1672_splitncnn_1 1688 0=0 
Split            splitncnn_232            1 6 1688 1688_splitncnn_0 1688_splitncnn_1 1688_splitncnn_2 1688_splitncnn_3 1688_splitncnn_4 1688_splitncnn_5 
Convolution      Conv_986                 1 1 1688_splitncnn_5 1689 0=32 1=3 11=3 2=1 12=1 3=1 13=1 4=1 14=1 15=1 16=1 5=1 6=18432 
ReLU             LeakyRelu_987            1 1 1689 1690 0=2.000000e-01 
Split            splitncnn_233            1 4 1690 1690_splitncnn_0 1690_splitncnn_1 1690_splitncnn_2 1690_splitncnn_3 
Concat           Concat_988               2 1 1688_splitncnn_4 1690_splitncnn_3 1691 0=0 
Convolution      Conv_989                 1 1 1691 1692 0=32 1=3 11=3 2=1 12=1 3=1 13=1 4=1 14=1 15=1 16=1 5=1 6=27648 
ReLU             LeakyRelu_990            1 1 1692 1693 0=2.000000e-01 
Split            splitncnn_234            1 3 1693 1693_splitncnn_0 1693_splitncnn_1 1693_splitncnn_2 
Concat           Concat_991               3 1 1688_splitncnn_3 1690_splitncnn_2 1693_splitncnn_2 1694 0=0 
Convolution      Conv_992                 1 1 1694 1695 0=32 1=3 11=3 2=1 12=1 3=1 13=1 4=1 14=1 15=1 16=1 5=1 6=36864 
ReLU             LeakyRelu_993            1 1 1695 1696 0=2.000000e-01 
Split            splitncnn_235            1 2 1696 1696_splitncnn_0 1696_splitncnn_1 
Concat           Concat_994               4 1 1688_splitncnn_2 1690_splitncnn_1 1693_splitncnn_1 1696_splitncnn_1 1697 0=0 
Convolution      Conv_995                 1 1 1697 1698 0=32 1=3 11=3 2=1 12=1 3=1 13=1 4=1 14=1 15=1 16=1 5=1 6=46080 
ReLU             LeakyRelu_996            1 1 1698 1699 0=2.000000e-01 
Concat           Concat_997               5 1 1688_splitncnn_1 1690_splitncnn_0 1693_splitncnn_0 1696_splitncnn_0 1699 1700 0=0 
Convolution      Conv_998                 1 1 1700 1701 0=64 1=3 11=3 2=1 12=1 3=1 13=1 4=1 14=1 15=1 16=1 5=1 6=110592 
BinaryOp         Mul_1000                 1 1 1701 1703 0=2 1=1 2=2.000000e-01 
BinaryOp         Add_1001                 2 1 1703 1688_splitncnn_0 1704 0=0 
Split            splitncnn_236            1 6 1704 1704_splitncnn_0 1704_splitncnn_1 1704_splitncnn_2 1704_splitncnn_3 1704_splitncnn_4 1704_splitncnn_5 
Convolution      Conv_1002                1 1 1704_splitncnn_5 1705 0=32 1=3 11=3 2=1 12=1 3=1 13=1 4=1 14=1 15=1 16=1 5=1 6=18432 
ReLU             LeakyRelu_1003           1 1 1705 1706 0=2.000000e-01 
Split            splitncnn_237            1 4 1706 1706_splitncnn_0 1706_splitncnn_1 1706_splitncnn_2 1706_splitncnn_3 
Concat           Concat_1004              2 1 1704_splitncnn_4 1706_splitncnn_3 1707 0=0 
Convolution      Conv_1005                1 1 1707 1708 0=32 1=3 11=3 2=1 12=1 3=1 13=1 4=1 14=1 15=1 16=1 5=1 6=27648 
ReLU             LeakyRelu_1006           1 1 1708 1709 0=2.000000e-01 
Split            splitncnn_238            1 3 1709 1709_splitncnn_0 1709_splitncnn_1 1709_splitncnn_2 
Concat           Concat_1007              3 1 1704_splitncnn_3 1706_splitncnn_2 1709_splitncnn_2 1710 0=0 
Convolution      Conv_1008                1 1 1710 1711 0=32 1=3 11=3 2=1 12=1 3=1 13=1 4=1 14=1 15=1 16=1 5=1 6=36864 
ReLU             LeakyRelu_1009           1 1 1711 1712 0=2.000000e-01 
Split            splitncnn_239            1 2 1712 1712_splitncnn_0 1712_splitncnn_1 
Concat           Concat_1010              4 1 1704_splitncnn_2 1706_splitncnn_1 1709_splitncnn_1 1712_splitncnn_1 1713 0=0 
Convolution      Conv_1011                1 1 1713 1714 0=32 1=3 11=3 2=1 12=1 3=1 13=1 4=1 14=1 15=1 16=1 5=1 6=46080 
ReLU             LeakyRelu_1012           1 1 1714 1715 0=2.000000e-01 
Concat           Concat_1013              5 1 1704_splitncnn_1 1706_splitncnn_0 1709_splitncnn_0 1712_splitncnn_0 1715 1716 0=0 
Convolution      Conv_1014                1 1 1716 1717 0=64 1=3 11=3 2=1 12=1 3=1 13=1 4=1 14=1 15=1 16=1 5=1 6=110592 
BinaryOp         Mul_1016                 1 1 1717 1719 0=2 1=1 2=2.000000e-01 
BinaryOp         Add_1017                 2 1 1719 1704_splitncnn_0 1720 0=0 
BinaryOp         Mul_1019                 1 1 1720 1722 0=2 1=1 2=2.000000e-01 
BinaryOp         Add_1020                 2 1 1722 1672_splitncnn_0 1723 0=0 
Split            splitncnn_240            1 7 1723 1723_splitncnn_0 1723_splitncnn_1 1723_splitncnn_2 1723_splitncnn_3 1723_splitncnn_4 1723_splitncnn_5 1723_splitncnn_6 
Convolution      Conv_1021                1 1 1723_splitncnn_6 1724 0=32 1=3 11=3 2=1 12=1 3=1 13=1 4=1 14=1 15=1 16=1 5=1 6=18432 
ReLU             LeakyRelu_1022           1 1 1724 1725 0=2.000000e-01 
Split            splitncnn_241            1 4 1725 1725_splitncnn_0 1725_splitncnn_1 1725_splitncnn_2 1725_splitncnn_3 
Concat           Concat_1023              2 1 1723_splitncnn_5 1725_splitncnn_3 1726 0=0 
Convolution      Conv_1024                1 1 1726 1727 0=32 1=3 11=3 2=1 12=1 3=1 13=1 4=1 14=1 15=1 16=1 5=1 6=27648 
ReLU             LeakyRelu_1025           1 1 1727 1728 0=2.000000e-01 
Split            splitncnn_242            1 3 1728 1728_splitncnn_0 1728_splitncnn_1 1728_splitncnn_2 
Concat           Concat_1026              3 1 1723_splitncnn_4 1725_splitncnn_2 1728_splitncnn_2 1729 0=0 
Convolution      Conv_1027                1 1 1729 1730 0=32 1=3 11=3 2=1 12=1 3=1 13=1 4=1 14=1 15=1 16=1 5=1 6=36864 
ReLU             LeakyRelu_1028           1 1 1730 1731 0=2.000000e-01 
Split            splitncnn_243            1 2 1731 1731_splitncnn_0 1731_splitncnn_1 
Concat           Concat_1029              4 1 1723_splitncnn_3 1725_splitncnn_1 1728_splitncnn_1 1731_splitncnn_1 1732 0=0 
Convolution      Conv_1030                1 1 1732 1733 0=32 1=3 11=3 2=1 12=1 3=1 13=1 4=1 14=1 15=1 16=1 5=1 6=46080 
ReLU             LeakyRelu_1031           1 1 1733 1734 0=2.000000e-01 
Concat           Concat_1032              5 1 1723_splitncnn_2 1725_splitncnn_0 1728_splitncnn_0 1731_splitncnn_0 1734 1735 0=0 
Convolution      Conv_1033                1 1 1735 1736 0=64 1=3 11=3 2=1 12=1 3=1 13=1 4=1 14=1 15=1 16=1 5=1 6=110592 
BinaryOp         Mul_1035                 1 1 1736 1738 0=2 1=1 2=2.000000e-01 
BinaryOp         Add_1036                 2 1 1738 1723_splitncnn_1 1739 0=0 
Split            splitncnn_244            1 6 1739 1739_splitncnn_0 1739_splitncnn_1 1739_splitncnn_2 1739_splitncnn_3 1739_splitncnn_4 1739_splitncnn_5 
Convolution      Conv_1037                1 1 1739_splitncnn_5 1740 0=32 1=3 11=3 2=1 12=1 3=1 13=1 4=1 14=1 15=1 16=1 5=1 6=18432 
ReLU             LeakyRelu_1038           1 1 1740 1741 0=2.000000e-01 
Split            splitncnn_245            1 4 1741 1741_splitncnn_0 1741_splitncnn_1 1741_splitncnn_2 1741_splitncnn_3 
Concat           Concat_1039              2 1 1739_splitncnn_4 1741_splitncnn_3 1742 0=0 
Convolution      Conv_1040                1 1 1742 1743 0=32 1=3 11=3 2=1 12=1 3=1 13=1 4=1 14=1 15=1 16=1 5=1 6=27648 
ReLU             LeakyRelu_1041           1 1 1743 1744 0=2.000000e-01 
Split            splitncnn_246            1 3 1744 1744_splitncnn_0 1744_splitncnn_1 1744_splitncnn_2 
Concat           Concat_1042              3 1 1739_splitncnn_3 1741_splitncnn_2 1744_splitncnn_2 1745 0=0 
Convolution      Conv_1043                1 1 1745 1746 0=32 1=3 11=3 2=1 12=1 3=1 13=1 4=1 14=1 15=1 16=1 5=1 6=36864 
ReLU             LeakyRelu_1044           1 1 1746 1747 0=2.000000e-01 
Split            splitncnn_247            1 2 1747 1747_splitncnn_0 1747_splitncnn_1 
Concat           Concat_1045              4 1 1739_splitncnn_2 1741_splitncnn_1 1744_splitncnn_1 1747_splitncnn_1 1748 0=0 
Convolution      Conv_1046                1 1 1748 1749 0=32 1=3 11=3 2=1 12=1 3=1 13=1 4=1 14=1 15=1 16=1 5=1 6=46080 
ReLU             LeakyRelu_1047           1 1 1749 1750 0=2.000000e-01 
Concat           Concat_1048              5 1 1739_splitncnn_1 1741_splitncnn_0 1744_splitncnn_0 1747_splitncnn_0 1750 1751 0=0 
Convolution      Conv_1049                1 1 1751 1752 0=64 1=3 11=3 2=1 12=1 3=1 13=1 4=1 14=1 15=1 16=1 5=1 6=110592 
BinaryOp         Mul_1051                 1 1 1752 1754 0=2 1=1 2=2.000000e-01 
BinaryOp         Add_1052                 2 1 1754 1739_splitncnn_0 1755 0=0 
Split            splitncnn_248            1 6 1755 1755_splitncnn_0 1755_splitncnn_1 1755_splitncnn_2 1755_splitncnn_3 1755_splitncnn_4 1755_splitncnn_5 
Convolution      Conv_1053                1 1 1755_splitncnn_5 1756 0=32 1=3 11=3 2=1 12=1 3=1 13=1 4=1 14=1 15=1 16=1 5=1 6=18432 
ReLU             LeakyRelu_1054           1 1 1756 1757 0=2.000000e-01 
Split            splitncnn_249            1 4 1757 1757_splitncnn_0 1757_splitncnn_1 1757_splitncnn_2 1757_splitncnn_3 
Concat           Concat_1055              2 1 1755_splitncnn_4 1757_splitncnn_3 1758 0=0 
Convolution      Conv_1056                1 1 1758 1759 0=32 1=3 11=3 2=1 12=1 3=1 13=1 4=1 14=1 15=1 16=1 5=1 6=27648 
ReLU             LeakyRelu_1057           1 1 1759 1760 0=2.000000e-01 
Split            splitncnn_250            1 3 1760 1760_splitncnn_0 1760_splitncnn_1 1760_splitncnn_2 
Concat           Concat_1058              3 1 1755_splitncnn_3 1757_splitncnn_2 1760_splitncnn_2 1761 0=0 
Convolution      Conv_1059                1 1 1761 1762 0=32 1=3 11=3 2=1 12=1 3=1 13=1 4=1 14=1 15=1 16=1 5=1 6=36864 
ReLU             LeakyRelu_1060           1 1 1762 1763 0=2.000000e-01 
Split            splitncnn_251            1 2 1763 1763_splitncnn_0 1763_splitncnn_1 
Concat           Concat_1061              4 1 1755_splitncnn_2 1757_splitncnn_1 1760_splitncnn_1 1763_splitncnn_1 1764 0=0 
Convolution      Conv_1062                1 1 1764 1765 0=32 1=3 11=3 2=1 12=1 3=1 13=1 4=1 14=1 15=1 16=1 5=1 6=46080 
ReLU             LeakyRelu_1063           1 1 1765 1766 0=2.000000e-01 
Concat           Concat_1064              5 1 1755_splitncnn_1 1757_splitncnn_0 1760_splitncnn_0 1763_splitncnn_0 1766 1767 0=0 
Convolution      Conv_1065                1 1 1767 1768 0=64 1=3 11=3 2=1 12=1 3=1 13=1 4=1 14=1 15=1 16=1 5=1 6=110592 
BinaryOp         Mul_1067                 1 1 1768 1770 0=2 1=1 2=2.000000e-01 
BinaryOp         Add_1068                 2 1 1770 1755_splitncnn_0 1771 0=0 
BinaryOp         Mul_1070                 1 1 1771 1773 0=2 1=1 2=2.000000e-01 
BinaryOp         Add_1071                 2 1 1773 1723_splitncnn_0 1774 0=0 
Split            splitncnn_252            1 7 1774 1774_splitncnn_0 1774_splitncnn_1 1774_splitncnn_2 1774_splitncnn_3 1774_splitncnn_4 1774_splitncnn_5 1774_splitncnn_6 
Convolution      Conv_1072                1 1 1774_splitncnn_6 1775 0=32 1=3 11=3 2=1 12=1 3=1 13=1 4=1 14=1 15=1 16=1 5=1 6=18432 
ReLU             LeakyRelu_1073           1 1 1775 1776 0=2.000000e-01 
Split            splitncnn_253            1 4 1776 1776_splitncnn_0 1776_splitncnn_1 1776_splitncnn_2 1776_splitncnn_3 
Concat           Concat_1074              2 1 1774_splitncnn_5 1776_splitncnn_3 1777 0=0 
Convolution      Conv_1075                1 1 1777 1778 0=32 1=3 11=3 2=1 12=1 3=1 13=1 4=1 14=1 15=1 16=1 5=1 6=27648 
ReLU             LeakyRelu_1076           1 1 1778 1779 0=2.000000e-01 
Split            splitncnn_254            1 3 1779 1779_splitncnn_0 1779_splitncnn_1 1779_splitncnn_2 
Concat           Concat_1077              3 1 1774_splitncnn_4 1776_splitncnn_2 1779_splitncnn_2 1780 0=0 
Convolution      Conv_1078                1 1 1780 1781 0=32 1=3 11=3 2=1 12=1 3=1 13=1 4=1 14=1 15=1 16=1 5=1 6=36864 
ReLU             LeakyRelu_1079           1 1 1781 1782 0=2.000000e-01 
Split            splitncnn_255            1 2 1782 1782_splitncnn_0 1782_splitncnn_1 
Concat           Concat_1080              4 1 1774_splitncnn_3 1776_splitncnn_1 1779_splitncnn_1 1782_splitncnn_1 1783 0=0 
Convolution      Conv_1081                1 1 1783 1784 0=32 1=3 11=3 2=1 12=1 3=1 13=1 4=1 14=1 15=1 16=1 5=1 6=46080 
ReLU             LeakyRelu_1082           1 1 1784 1785 0=2.000000e-01 
Concat           Concat_1083              5 1 1774_splitncnn_2 1776_splitncnn_0 1779_splitncnn_0 1782_splitncnn_0 1785 1786 0=0 
Convolution      Conv_1084                1 1 1786 1787 0=64 1=3 11=3 2=1 12=1 3=1 13=1 4=1 14=1 15=1 16=1 5=1 6=110592 
BinaryOp         Mul_1086                 1 1 1787 1789 0=2 1=1 2=2.000000e-01 
BinaryOp         Add_1087                 2 1 1789 1774_splitncnn_1 1790 0=0 
Split            splitncnn_256            1 6 1790 1790_splitncnn_0 1790_splitncnn_1 1790_splitncnn_2 1790_splitncnn_3 1790_splitncnn_4 1790_splitncnn_5 
Convolution      Conv_1088                1 1 1790_splitncnn_5 1791 0=32 1=3 11=3 2=1 12=1 3=1 13=1 4=1 14=1 15=1 16=1 5=1 6=18432 
ReLU             LeakyRelu_1089           1 1 1791 1792 0=2.000000e-01 
Split            splitncnn_257            1 4 1792 1792_splitncnn_0 1792_splitncnn_1 1792_splitncnn_2 1792_splitncnn_3 
Concat           Concat_1090              2 1 1790_splitncnn_4 1792_splitncnn_3 1793 0=0 
Convolution      Conv_1091                1 1 1793 1794 0=32 1=3 11=3 2=1 12=1 3=1 13=1 4=1 14=1 15=1 16=1 5=1 6=27648 
ReLU             LeakyRelu_1092           1 1 1794 1795 0=2.000000e-01 
Split            splitncnn_258            1 3 1795 1795_splitncnn_0 1795_splitncnn_1 1795_splitncnn_2 
Concat           Concat_1093              3 1 1790_splitncnn_3 1792_splitncnn_2 1795_splitncnn_2 1796 0=0 
Convolution      Conv_1094                1 1 1796 1797 0=32 1=3 11=3 2=1 12=1 3=1 13=1 4=1 14=1 15=1 16=1 5=1 6=36864 
ReLU             LeakyRelu_1095           1 1 1797 1798 0=2.000000e-01 
Split            splitncnn_259            1 2 1798 1798_splitncnn_0 1798_splitncnn_1 
Concat           Concat_1096              4 1 1790_splitncnn_2 1792_splitncnn_1 1795_splitncnn_1 1798_splitncnn_1 1799 0=0 
Convolution      Conv_1097                1 1 1799 1800 0=32 1=3 11=3 2=1 12=1 3=1 13=1 4=1 14=1 15=1 16=1 5=1 6=46080 
ReLU             LeakyRelu_1098           1 1 1800 1801 0=2.000000e-01 
Concat           Concat_1099              5 1 1790_splitncnn_1 1792_splitncnn_0 1795_splitncnn_0 1798_splitncnn_0 1801 1802 0=0 
Convolution      Conv_1100                1 1 1802 1803 0=64 1=3 11=3 2=1 12=1 3=1 13=1 4=1 14=1 15=1 16=1 5=1 6=110592 
BinaryOp         Mul_1102                 1 1 1803 1805 0=2 1=1 2=2.000000e-01 
BinaryOp         Add_1103                 2 1 1805 1790_splitncnn_0 1806 0=0 
Split            splitncnn_260            1 6 1806 1806_splitncnn_0 1806_splitncnn_1 1806_splitncnn_2 1806_splitncnn_3 1806_splitncnn_4 1806_splitncnn_5 
Convolution      Conv_1104                1 1 1806_splitncnn_5 1807 0=32 1=3 11=3 2=1 12=1 3=1 13=1 4=1 14=1 15=1 16=1 5=1 6=18432 
ReLU             LeakyRelu_1105           1 1 1807 1808 0=2.000000e-01 
Split            splitncnn_261            1 4 1808 1808_splitncnn_0 1808_splitncnn_1 1808_splitncnn_2 1808_splitncnn_3 
Concat           Concat_1106              2 1 1806_splitncnn_4 1808_splitncnn_3 1809 0=0 
Convolution      Conv_1107                1 1 1809 1810 0=32 1=3 11=3 2=1 12=1 3=1 13=1 4=1 14=1 15=1 16=1 5=1 6=27648 
ReLU             LeakyRelu_1108           1 1 1810 1811 0=2.000000e-01 
Split            splitncnn_262            1 3 1811 1811_splitncnn_0 1811_splitncnn_1 1811_splitncnn_2 
Concat           Concat_1109              3 1 1806_splitncnn_3 1808_splitncnn_2 1811_splitncnn_2 1812 0=0 
Convolution      Conv_1110                1 1 1812 1813 0=32 1=3 11=3 2=1 12=1 3=1 13=1 4=1 14=1 15=1 16=1 5=1 6=36864 
ReLU             LeakyRelu_1111           1 1 1813 1814 0=2.000000e-01 
Split            splitncnn_263            1 2 1814 1814_splitncnn_0 1814_splitncnn_1 
Concat           Concat_1112              4 1 1806_splitncnn_2 1808_splitncnn_1 1811_splitncnn_1 1814_splitncnn_1 1815 0=0 
Convolution      Conv_1113                1 1 1815 1816 0=32 1=3 11=3 2=1 12=1 3=1 13=1 4=1 14=1 15=1 16=1 5=1 6=46080 
ReLU             LeakyRelu_1114           1 1 1816 1817 0=2.000000e-01 
Concat           Concat_1115              5 1 1806_splitncnn_1 1808_splitncnn_0 1811_splitncnn_0 1814_splitncnn_0 1817 1818 0=0 
Convolution      Conv_1116                1 1 1818 1819 0=64 1=3 11=3 2=1 12=1 3=1 13=1 4=1 14=1 15=1 16=1 5=1 6=110592 
BinaryOp         Mul_1118                 1 1 1819 1821 0=2 1=1 2=2.000000e-01 
BinaryOp         Add_1119                 2 1 1821 1806_splitncnn_0 1822 0=0 
BinaryOp         Mul_1121                 1 1 1822 1824 0=2 1=1 2=2.000000e-01 
BinaryOp         Add_1122                 2 1 1824 1774_splitncnn_0 1825 0=0 
Split            splitncnn_264            1 7 1825 1825_splitncnn_0 1825_splitncnn_1 1825_splitncnn_2 1825_splitncnn_3 1825_splitncnn_4 1825_splitncnn_5 1825_splitncnn_6 
Convolution      Conv_1123                1 1 1825_splitncnn_6 1826 0=32 1=3 11=3 2=1 12=1 3=1 13=1 4=1 14=1 15=1 16=1 5=1 6=18432 
ReLU             LeakyRelu_1124           1 1 1826 1827 0=2.000000e-01 
Split            splitncnn_265            1 4 1827 1827_splitncnn_0 1827_splitncnn_1 1827_splitncnn_2 1827_splitncnn_3 
Concat           Concat_1125              2 1 1825_splitncnn_5 1827_splitncnn_3 1828 0=0 
Convolution      Conv_1126                1 1 1828 1829 0=32 1=3 11=3 2=1 12=1 3=1 13=1 4=1 14=1 15=1 16=1 5=1 6=27648 
ReLU             LeakyRelu_1127           1 1 1829 1830 0=2.000000e-01 
Split            splitncnn_266            1 3 1830 1830_splitncnn_0 1830_splitncnn_1 1830_splitncnn_2 
Concat           Concat_1128              3 1 1825_splitncnn_4 1827_splitncnn_2 1830_splitncnn_2 1831 0=0 
Convolution      Conv_1129                1 1 1831 1832 0=32 1=3 11=3 2=1 12=1 3=1 13=1 4=1 14=1 15=1 16=1 5=1 6=36864 
ReLU             LeakyRelu_1130           1 1 1832 1833 0=2.000000e-01 
Split            splitncnn_267            1 2 1833 1833_splitncnn_0 1833_splitncnn_1 
Concat           Concat_1131              4 1 1825_splitncnn_3 1827_splitncnn_1 1830_splitncnn_1 1833_splitncnn_1 1834 0=0 
Convolution      Conv_1132                1 1 1834 1835 0=32 1=3 11=3 2=1 12=1 3=1 13=1 4=1 14=1 15=1 16=1 5=1 6=46080 
ReLU             LeakyRelu_1133           1 1 1835 1836 0=2.000000e-01 
Concat           Concat_1134              5 1 1825_splitncnn_2 1827_splitncnn_0 1830_splitncnn_0 1833_splitncnn_0 1836 1837 0=0 
Convolution      Conv_1135                1 1 1837 1838 0=64 1=3 11=3 2=1 12=1 3=1 13=1 4=1 14=1 15=1 16=1 5=1 6=110592 
BinaryOp         Mul_1137                 1 1 1838 1840 0=2 1=1 2=2.000000e-01 
BinaryOp         Add_1138                 2 1 1840 1825_splitncnn_1 1841 0=0 
Split            splitncnn_268            1 6 1841 1841_splitncnn_0 1841_splitncnn_1 1841_splitncnn_2 1841_splitncnn_3 1841_splitncnn_4 1841_splitncnn_5 
Convolution      Conv_1139                1 1 1841_splitncnn_5 1842 0=32 1=3 11=3 2=1 12=1 3=1 13=1 4=1 14=1 15=1 16=1 5=1 6=18432 
ReLU             LeakyRelu_1140           1 1 1842 1843 0=2.000000e-01 
Split            splitncnn_269            1 4 1843 1843_splitncnn_0 1843_splitncnn_1 1843_splitncnn_2 1843_splitncnn_3 
Concat           Concat_1141              2 1 1841_splitncnn_4 1843_splitncnn_3 1844 0=0 
Convolution      Conv_1142                1 1 1844 1845 0=32 1=3 11=3 2=1 12=1 3=1 13=1 4=1 14=1 15=1 16=1 5=1 6=27648 
ReLU             LeakyRelu_1143           1 1 1845 1846 0=2.000000e-01 
Split            splitncnn_270            1 3 1846 1846_splitncnn_0 1846_splitncnn_1 1846_splitncnn_2 
Concat           Concat_1144              3 1 1841_splitncnn_3 1843_splitncnn_2 1846_splitncnn_2 1847 0=0 
Convolution      Conv_1145                1 1 1847 1848 0=32 1=3 11=3 2=1 12=1 3=1 13=1 4=1 14=1 15=1 16=1 5=1 6=36864 
ReLU             LeakyRelu_1146           1 1 1848 1849 0=2.000000e-01 
Split            splitncnn_271            1 2 1849 1849_splitncnn_0 1849_splitncnn_1 
Concat           Concat_1147              4 1 1841_splitncnn_2 1843_splitncnn_1 1846_splitncnn_1 1849_splitncnn_1 1850 0=0 
Convolution      Conv_1148                1 1 1850 1851 0=32 1=3 11=3 2=1 12=1 3=1 13=1 4=1 14=1 15=1 16=1 5=1 6=46080 
ReLU             LeakyRelu_1149           1 1 1851 1852 0=2.000000e-01 
Concat           Concat_1150              5 1 1841_splitncnn_1 1843_splitncnn_0 1846_splitncnn_0 1849_splitncnn_0 1852 1853 0=0 
Convolution      Conv_1151                1 1 1853 1854 0=64 1=3 11=3 2=1 12=1 3=1 13=1 4=1 14=1 15=1 16=1 5=1 6=110592 
BinaryOp         Mul_1153                 1 1 1854 1856 0=2 1=1 2=2.000000e-01 
BinaryOp         Add_1154                 2 1 1856 1841_splitncnn_0 1857 0=0 
Split            splitncnn_272            1 6 1857 1857_splitncnn_0 1857_splitncnn_1 1857_splitncnn_2 1857_splitncnn_3 1857_splitncnn_4 1857_splitncnn_5 
Convolution      Conv_1155                1 1 1857_splitncnn_5 1858 0=32 1=3 11=3 2=1 12=1 3=1 13=1 4=1 14=1 15=1 16=1 5=1 6=18432 
ReLU             LeakyRelu_1156           1 1 1858 1859 0=2.000000e-01 
Split            splitncnn_273            1 4 1859 1859_splitncnn_0 1859_splitncnn_1 1859_splitncnn_2 1859_splitncnn_3 
Concat           Concat_1157              2 1 1857_splitncnn_4 1859_splitncnn_3 1860 0=0 
Convolution      Conv_1158                1 1 1860 1861 0=32 1=3 11=3 2=1 12=1 3=1 13=1 4=1 14=1 15=1 16=1 5=1 6=27648 
ReLU             LeakyRelu_1159           1 1 1861 1862 0=2.000000e-01 
Split            splitncnn_274            1 3 1862 1862_splitncnn_0 1862_splitncnn_1 1862_splitncnn_2 
Concat           Concat_1160              3 1 1857_splitncnn_3 1859_splitncnn_2 1862_splitncnn_2 1863 0=0 
Convolution      Conv_1161                1 1 1863 1864 0=32 1=3 11=3 2=1 12=1 3=1 13=1 4=1 14=1 15=1 16=1 5=1 6=36864 
ReLU             LeakyRelu_1162           1 1 1864 1865 0=2.000000e-01 
Split            splitncnn_275            1 2 1865 1865_splitncnn_0 1865_splitncnn_1 
Concat           Concat_1163              4 1 1857_splitncnn_2 1859_splitncnn_1 1862_splitncnn_1 1865_splitncnn_1 1866 0=0 
Convolution      Conv_1164                1 1 1866 1867 0=32 1=3 11=3 2=1 12=1 3=1 13=1 4=1 14=1 15=1 16=1 5=1 6=46080 
ReLU             LeakyRelu_1165           1 1 1867 1868 0=2.000000e-01 
Concat           Concat_1166              5 1 1857_splitncnn_1 1859_splitncnn_0 1862_splitncnn_0 1865_splitncnn_0 1868 1869 0=0 
Convolution      Conv_1167                1 1 1869 1870 0=64 1=3 11=3 2=1 12=1 3=1 13=1 4=1 14=1 15=1 16=1 5=1 6=110592 
BinaryOp         Mul_1169                 1 1 1870 1872 0=2 1=1 2=2.000000e-01 
BinaryOp         Add_1170                 2 1 1872 1857_splitncnn_0 1873 0=0 
BinaryOp         Mul_1172                 1 1 1873 1875 0=2 1=1 2=2.000000e-01 
BinaryOp         Add_1173                 2 1 1875 1825_splitncnn_0 1876 0=0 
Convolution      Conv_1174                1 1 1876 1877 0=64 1=3 11=3 2=1 12=1 3=1 13=1 4=1 14=1 15=1 16=1 5=1 6=36864 
BinaryOp         Add_1175                 2 1 703_splitncnn_0 1877 1878 0=0 
Interp           Resize_1176              1 1 1878 1883 0=1 1=2.000000e+00 2=2.000000e+00 3=0 4=0 6=0 
Convolution      Conv_1177                1 1 1883 1884 0=64 1=3 11=3 2=1 12=1 3=1 13=1 4=1 14=1 15=1 16=1 5=1 6=36864 
ReLU             LeakyRelu_1178           1 1 1884 1885 0=2.000000e-01 
Interp           Resize_1179              1 1 1885 1890 0=1 1=2.000000e+00 2=2.000000e+00 3=0 4=0 6=0 
Convolution      Conv_1180                1 1 1890 1891 0=64 1=3 11=3 2=1 12=1 3=1 13=1 4=1 14=1 15=1 16=1 5=1 6=36864 
ReLU             LeakyRelu_1181           1 1 1891 1892 0=2.000000e-01 
Convolution      Conv_1182                1 1 1892 1893 0=64 1=3 11=3 2=1 12=1 3=1 13=1 4=1 14=1 15=1 16=1 5=1 6=36864 
ReLU             LeakyRelu_1183           1 1 1893 1894 0=2.000000e-01 
Convolution      Conv_1184                1 1 1894 output 0=3 1=3 11=3 2=1 12=1 3=1 13=1 4=1 14=1 15=1 16=1 5=1 6=1728 
